save/test/model.pth (torch, 444819 bytes, 62 tensors)

weight f8 [1, 30]
000000 88 9f 54 66 39 39 bf bf 28 03 70 72 15 84 a9 bf
       -0.12196692226700467 -0.04983584424917914
000010 30 f8 72 df 66 ae c4 bf bc 18 03 a9 2f e1 7a 3f
       -0.16157232199287952 0.00656241051928513
000020 ac 2d 92 ce bf 7e 9d bf 4b d7 8d 31 bb b1 c7 bf
       -0.028803822501272044 -0.18511142654068133
000030 8a a1 d0 9c 8c 0c a4 3f a9 b7 c0 18 7d 7a c5 3f
       0.03915824331517388 0.1678005572188657
000040 18 97 36 d0 9b c5 c1 bf 65 eb 0d bc 8e e6 a0 bf
       -0.13884303728735214 -0.033009014564376916
000050 35 71 a9 ee 4c 31 c1 bf ac 0d d3 a7 19 4a a1 3f
       -0.13431703236973083 0.033768464790706915
000060 6e ce bf 10 3c b3 c2 bf 1c 94 a6 4d 54 cf c2 bf
       -0.1460948068412224 -0.146952188411121
000070 f8 3f 92 2d 8a 98 c2 bf c7 be a5 9f a3 ca ba 3f
       -0.14528014397774291 0.10465452811854013
000080 07 3a 28 7f 41 2c c5 3f 16 ee 1c f5 27 66 a4 3f
       0.16541308125347617 0.03984188906767032
000090 1b 6d 04 21 27 31 c5 3f e1 90 9b 9a bd 9a c2 bf
       0.16556252586529116 -0.14534730958178613
0000a0 f7 ef b4 53 d7 ea b5 bf e1 c0 93 03 24 0c c6 bf
       -0.0856146411287567 -0.17224550413766962
0000b0 a8 ba 79 39 bb 3d a8 bf 50 ee 96 8d 6b ab a1 bf
       -0.04734597279172209 -0.03451095679653504
0000c0 d8 be 42 a0 6d e9 a9 bf 09 52 29 3c 92 4b c3 3f
       -0.05060904103572533 0.1507437509304881
0000d0 17 fc e1 5c 3d dc a5 bf 3f 29 5b 66 0a 6a be bf
       -0.04269592055151621 -0.11880555151870896
0000e0 04 8d e5 91 08 d7 c4 3f 04 eb b6 f6 f0 0d ba bf
       0.16281230090962862 -0.10177522681525991

bias f8 [1]
000000 24 da 03 e0 3f 2f 6e bf
       -0.0036846396980039376

weight f8 [10, 10]
000000 0a 3c 0e ae df 5e bb bf b4 47 98 8f 19 e3 bd 3f
       -0.10691640853313814 0.11674651866658686
000010 09 d5 58 15 29 d5 ca 3f 33 01 91 b3 3f 2e cd bf
       0.2096301416619684 -0.2279739023961241
000020 f8 41 30 76 e2 34 d2 bf 3f bf 80 92 0d b6 b9 bf
       -0.2844778207955012 -0.10043415858012582
000030 44 81 16 b7 37 4a ab 3f c9 16 2e c0 20 e3 ca bf
       0.05330061063728178 -0.2100563944224432
000040 8a 6d 9e 7c fe 30 b2 bf e7 cf 8a 76 1b a7 d0 3f
       -0.07106009046986209 0.2601994187964451
000050 58 36 91 e2 71 a3 b2 3f 14 17 12 b3 a0 33 d1 bf
       0.07280647069384238 -0.2687761067139587
000060 d4 b5 75 84 c2 13 c4 bf 41 9d e8 70 6e 3c ca 3f
       -0.1568530222679515 0.20496922028653766
000070 09 52 ec b6 97 97 cf bf b0 62 27 3c 70 4a ca bf
       -0.24681374007981585 -0.20539668023299873
000080 03 9b 16 73 31 14 d3 3f 56 a4 1d 75 45 cd cc bf
       0.29810749281971044 -0.225014383492893
000090 07 fc 93 bf 1a d0 83 bf fe 05 a0 6e 46 08 b7 3f
       -0.009674271556376025 0.08997001839454552
0000a0 fe f9 bf 6f 51 26 cd bf fd a7 db 8b 3d 21 97 bf
       -0.22773187595880978 -0.022587739621407355
0000b0 c8 aa 5f 7c f6 e3 b8 3f 7f 95 44 86 78 d5 ac bf
       0.09722843681781079 -0.056316152944684277
0000c0 39 ab 56 fe 60 cc c9 3f 11 c3 30 5c bd f8 c0 bf
       0.20154964846491355 -0.13259093286026105
0000d0 40 1a 4d 0b f6 d5 c1 3f c4 60 f3 08 96 82 a2 3f
       0.13934207488837735 0.036152542679418725
0000e0 29 52 83 f0 c9 18 b7 bf d5 eb e1 40 55 42 d0 bf
       -0.09022199746989003 -0.254048646318265
0000f0 f1 88 e8 22 4d 00 c4 3f 0c 46 92 a5 71 3a 66 3f
       0.15625919537075775 0.002713415113767997
000100 82 5e d6 e0 3f 2b b6 bf 81 13 7a 9f c3 91 d0 3f
       -0.08659743537134015 0.25889673780357475
000110 1c d7 be bc 07 35 b9 3f ad 68 14 96 f4 dd ca bf
       0.09846542699855515 -0.20989854171859204
000120 8f 16 dd 54 13 c4 d3 3f 9f 02 f7 80 de 89 9d bf
       0.3088424996134131 -0.028846241589919882
000130 80 ca b3 54 78 7a bd 3f 53 7b 55 56 1d 3c af 3f
       0.11514999454429109 0.06100551298981451
000140 1a 3d 94 8d 94 11 cd bf 37 18 71 ac 63 69 a5 bf
       -0.2270990077308646 -0.04181968193056245
000150 01 21 dd 2d 1f 63 d1 bf ad 19 76 87 f4 14 a0 3f
       -0.27167491415868034 0.03140987542706184
000160 1f 08 a6 a5 22 0b c3 bf 7a 90 0d fa ad 16 a8 bf
       -0.14877732361134208 -0.047048031591459386
000170 b3 dc 06 08 2d 7b cb 3f 92 16 7f 3b 4c d3 c6 3f
       0.21469653026517718 0.17832329659556884
000180 69 cb 24 59 8f 3b 7b 3f 17 76 cd de 76 ea cd bf
       0.006648597673392633 -0.23371778372795468
000190 57 d4 57 75 61 d0 a4 3f 3a 39 93 97 e8 0b c8 3f
       0.04065231854830447 0.18786342049720323
0001a0 0f 3d 28 92 1e fa d0 3f 3c 65 a4 f7 04 05 ce bf
       0.2652660777393558 -0.23452818004515474
0001b0 e7 bc fb 08 27 ce 97 3f d9 15 be 49 3e f4 c0 3f
       0.02324734680490517 0.13245371437748935
0001c0 0e ce 0f 5d 95 a0 c8 bf be fd 2a 5b c0 49 b9 3f
       -0.19240061801939173 0.0987816069200482
0001d0 dc d5 49 5e 57 d8 8c 3f d6 54 72 ed a5 fd c4 bf
       0.014084513249353607 -0.16399072736809356
0001e0 e7 95 96 2f 8a f5 bc 3f 73 ce 55 83 ed 0a d3 bf
       0.11312163984128852 -0.29754197908116636
0001f0 05 73 9d c8 83 5c d2 bf b9 c4 36 97 f1 98 b0 bf
       -0.2868966540461744 -0.06483373586412967
000200 e5 79 13 ed 0f 6c d0 bf 12 d9 72 0a ec 69 c4 3f
       -0.25659559394799053 0.15948248396097903
000210 c2 bc 72 ae a0 34 a1 bf 0f a1 4c 70 f0 0f be bf
       -0.03360464219564953 -0.11743071309740948
000220 eb 12 89 88 96 ad d2 3f 36 c3 12 3e f9 55 cd bf
       0.2918449719766573 -0.22918620615885182
000230 4f c8 f1 a8 61 64 7c 3f e6 9a d9 4b 37 ff 91 bf
       0.0069316687432650756 -0.01757513428165227
000240 7c 14 32 9f 10 4a cc bf 1b 96 15 b8 a4 a0 cb 3f
       -0.22101028226112251 0.21583994854442853
000250 bd a1 52 2e 5e 42 bb bf 16 8f d1 2a 3e 4e b8 bf
       -0.10648144370009667 -0.09494389100433084
000260 49 b8 bb 21 b4 5d bb 3f 22 e7 12 53 27 b2 c4 3f
       0.10689855407301353 0.16168681675281343
000270 67 4d 4a b7 f2 30 aa 3f 13 86 20 bf 63 db c5 3f
       0.051154694437310515 0.17075774032950672
000280 0c e8 3e f8 e9 c2 b8 3f 44 f8 6c 02 ca a1 ca bf
       0.09672415075957036 -0.20806241148415172
000290 fe d0 eb a5 f7 d9 b5 3f 89 97 0a 30 dc 67 95 bf
       0.08535716820535197 -0.020904007370198072
0002a0 0f f4 9a cf 9c 11 c3 3f 03 0e 01 c9 4c c3 c4 3f
       0.1489749921510399 0.16221008124021816
0002b0 cf 51 27 05 08 26 d5 3f 6c 00 02 e1 23 2e b4 bf
       0.33044624808578943 -0.07882904284815745
0002c0 79 9b db cd 49 76 bf 3f 24 0f 1d 60 d6 46 ce 3f
       0.12289868617845724 0.23653678601305572
0002d0 42 51 ab 47 43 dd 93 3f 74 ab 62 c6 36 f4 af 3f
       0.019398738145200108 0.06241007968613746
0002e0 4e ba 7d 4f 56 a4 c6 3f 0a a0 92 3f f4 cf cc 3f
       0.17689017182734051 0.2250962553418961
0002f0 3b b9 12 2b dd 3f c9 3f 5a 4e 06 fd 8d ca d3 bf
       0.19726147273235903 -0.309237954229706
000300 54 c9 91 79 2b 9b bb 3f 34 f9 a3 53 ac 0e b3 3f
       0.10783645360951272 0.07444264451985277
000310 13 58 0f 55 eb e2 d2 bf a6 4d b1 36 fa b5 c8 bf
       -0.295100052896829 -0.19305350943123506

bias f8 [10]
000000 65 c5 7c 32 44 39 c1 bf 45 f6 fa 8e 28 1f cb bf
       -0.13456013169483608 -0.21188837987385703
000010 36 76 4c b9 46 f8 d3 bf 86 34 13 4e 7f ef 92 bf
       -0.3120285806233797 -0.018491734638520295
000020 e9 d2 26 bd 36 20 d0 bf f4 a0 dd c1 5a 7b cc 3f
       -0.2519661757644785 0.22251448122120332
000030 ea ce cd 12 67 67 d2 3f 5d 67 d3 26 bb 5f b9 3f
       0.2875611957199299 0.09911699006934556
000040 31 cb 32 ac 17 f5 cd 3f 4f 3d da 93 a7 95 c3 bf
       0.23404212864041932 -0.15300459594116453

weight f8 [10]
000000 13 84 b9 18 57 2c f0 3f 90 0b 7d 9c a3 d9 ef 3f
       1.0108252492721064 0.9953172737517537
000010 e4 7a 53 36 68 c4 ef 3f a6 db 20 f9 08 34 f0 3f
       0.9927254735046884 1.0127038699699624
000020 3b 47 a2 a7 9c d4 ef 3f bb 57 3d 5b 7f 1f f0 3f
       0.9947036050891492 1.0076898159072545
000030 98 15 32 a5 d5 a9 ef 3f bb 80 ab 5a b2 92 ef 3f
       0.9894817568280585 0.9866573115250711
000040 fa b1 11 f8 bc 72 f0 3f 3f 57 a0 10 fa 77 f0 3f
       1.0280122461509777 1.0292912148920121

bias f8 [10]
000000 61 6c 9e 7e 72 11 60 bf f6 22 b5 2c 92 eb 5b 3f
       -0.0019614444945097874 0.001704113720579934
000010 cd 12 24 28 36 9e 70 3f de b1 16 c2 1a 84 59 bf
       0.004057132291795451 -0.0015573750791687472
000020 c8 1a 2e d0 36 57 8a 3f 36 09 63 96 27 5b 64 bf
       0.012861660221245144 -0.0024848721687657184
000030 e5 ec af 15 51 0e 90 3f c2 30 5d 75 47 92 75 3f
       0.01567961401813713 0.005266455778677849
000040 ea 3b 6e af 60 7d 59 bf d1 c7 a8 9b 12 9f 50 3f
       -0.0015557712738176696 0.0010144883841687222

weight_ih_l0 f8 [128, 10]
000000 b7 24 6a 46 ec fb b2 bf 2e 0c f9 e9 ed 83 6b 3f
       -0.07415653914553642 0.003358807254501459
000010 97 5e f4 69 8f 84 b9 3f 2a 53 b6 a1 f2 39 bd 3f
       0.09967895828992322 0.11416546295215527
000020 c1 01 7f 55 7b e5 9d 3f 03 88 75 f5 4f b9 c4 3f
       0.02919571599318416 0.16190528378780308
000030 0f d9 5a 44 a7 db b9 bf 4f 8a e8 c7 2b 4b a1 3f
       -0.10100789469547443 0.033776634362102535
000040 dc 4e 96 4a 4c c9 a3 bf dd e3 b2 6b 65 98 b2 3f
       -0.038645156960368715 0.07263788108220078
000050 18 51 b1 d4 da 18 83 bf 6b 2f 0b 5f 2c be bf 3f
       -0.00932475053392827 0.12399556465532917
000060 a5 45 0c 3d 2a 2d 73 bf 1e 88 43 d9 b6 bf b0 3f
       -0.004681744569795231 0.06542532734195602
000070 a9 c3 9e 92 ce 07 c6 bf eb 90 d0 cb ec 7b aa 3f
       -0.17211324843586098 0.05172672260258245
000080 93 e1 8f cf 87 f0 a4 bf 3c 7e fc 81 ad 0e a3 3f
       -0.04089760216442353 0.03722135745760766
000090 56 ca 55 c4 e0 fb 5a bf c6 3a 94 1f d1 16 b9 3f
       -0.0016469664563742068 0.09800440808269703
0000a0 a3 09 88 3d c8 a1 b9 bf ca 58 72 29 da 58 a4 bf
       -0.10012485029441236 -0.03974038845005763
0000b0 34 16 c2 3c 3e 9f bc bf 5c 26 59 22 23 36 c1 3f
       -0.11180485709527305 0.13446463753853066
0000c0 96 5c 69 c6 50 70 95 3f d7 c3 fb 0b 9e 44 38 bf
       0.020936262235718837 -0.00037030085148531455
0000d0 67 a7 7c 6a 07 e6 a0 3f 92 af 04 8e b9 af a7 bf
       0.033004981755154365 -0.04626254900571704
0000e0 f1 4c 89 28 f3 66 a9 bf 89 11 be 35 ec 83 80 bf
       -0.049613569925577646 -0.008064122572030612
0000f0 04 19 00 50 c9 20 ad 3f 4c ce 4c 4d 3b 26 a0 3f
       0.05689076520507011 0.03154168432811541
000100 c3 4f 3d b5 4b 1b a9 bf 6c 0d 7b 73 30 d7 b3 bf
       -0.04903637492557735 -0.07750227755882627
000110 54 14 cd 84 95 cc a4 bf 76 48 1d 64 bc c7 c5 3f
       -0.040623352490492565 0.17015795601270484
000120 f3 2f db 83 ee 4c b6 3f 30 5f 4f cf 70 37 63 bf
       0.08711138457437055 -0.002345772105836995
000130 82 e1 22 7f 9a af b2 3f 94 c7 46 7c e6 26 ac 3f
       0.07299199680244864 0.05498428599402341
000140 f5 b9 d3 85 3d 2a be bf 89 48 70 3c a8 31 8d bf
       -0.11783203618299594 -0.014254869789543061
000150 17 23 a3 71 9a b7 b3 bf 99 18 16 0b 3e 3b 97 3f
       -0.07702031397196794 0.02268692915597423
000160 9e df 7e b5 d6 aa b3 3f a8 32 82 6f 6f 46 a5 3f
       0.07682554179234422 0.041553003656280396
000170 90 8b 0a b4 6d 9f c0 bf cc dd f4 bc 74 35 c2 bf
       -0.1298653725726493 -0.14225634790794428
000180 67 ca c6 e0 1c 99 c3 3f 33 c1 a7 5e 9d 4a be bf
       0.15311013198295884 -0.11832603035850724
000190 06 fa 6f 40 5a 92 c0 bf 5c 46 02 2f 62 49 ba bf
       -0.1294663252483163 -0.1026822438018597
0001a0 d0 55 26 8b 1e e6 a2 bf 44 00 36 5a 4b da b6 3f
       -0.0369119210110217 0.08926840736785474
0001b0 3e a9 ea 21 9c 01 c4 bf bf 31 19 bd ab 45 a5 3f
       -0.15629913002096346 0.04154717143373742
0001c0 de 2f 2a ce 52 58 b5 3f e2 42 02 10 16 0d 9c 3f
       0.08337895901985301 0.027393669821836115
0001d0 6b 62 97 55 25 d9 b3 3f 84 d7 af c7 f0 1d 9a 3f
       0.07753213252670725 0.02550483912269598
0001e0 6b 58 ec e1 d0 53 65 3f c5 68 1e 39 91 76 c1 bf
       0.0026034431206297024 -0.13643088616374235
0001f0 db 2e 55 9d 2b 50 b0 bf 60 ed d5 74 8a 01 ae 3f
       -0.06372330275660991 0.05860550571648093
000200 9a 71 e4 d8 50 b8 c5 3f f4 b4 07 86 3d 2a b1 bf
       0.1696873721165389 -0.06705078623027189
000210 a0 b5 76 99 1a 44 c4 3f b1 1c c5 41 62 68 c5 bf
       0.15832836621613655 -0.16724804126190443
000220 13 88 73 8c 34 da af 3f e3 9e 12 6f 9c bf 7a 3f
       0.06221164907925938 0.006530390806041206
000230 52 59 f3 60 15 3c c1 bf d9 bc a9 a9 3b b6 ba 3f
       -0.13464610322871323 0.10434315578617105
000240 b7 6f 46 e1 a4 17 b4 bf 92 94 a9 a2 15 db b9 bf
       -0.078485779761137 -0.10099921437502449
000250 c1 4c 82 85 a9 ac 96 bf fd d5 2e 18 41 d5 ae 3f
       -0.02214302899717491 0.06022075100137767
000260 c0 4f 6d d6 17 fd bc 3f f6 c5 bd 59 70 cf b5 3f
       0.11323689446481833 0.08519651595067743
000270 3d ed 73 a5 a3 24 9a bf b3 d0 77 b9 74 f7 a5 bf
       -0.02553039262145983 -0.04290356410993592
000280 d8 20 ee eb 62 e8 c1 bf d6 37 f9 92 34 0f ba 3f
       -0.13990437049893134 0.10179451549740234
000290 31 46 2e 31 28 b9 c3 bf 3e 5e 65 65 f2 53 bd 3f
       -0.15408804322628236 0.11456217742431193
0002a0 42 3d 21 29 df 81 c1 3f e3 e1 15 a2 c1 bc cb 3f
       0.13677587040226952 0.21669788755731564
0002b0 6d 46 26 be 88 b0 b9 3f 63 ec 42 8e fd f5 ba 3f
       0.10034994737932275 0.10531601641825854
0002c0 f2 59 df f3 38 ab c3 3f 2a fc 92 dd 19 a1 c0 3f
       0.1536627951415564 0.12991641348887245
0002d0 96 77 9d 75 14 56 bd bf 62 cb 57 e3 92 e1 aa 3f
       -0.11459472533667134 0.05250224137480221
0002e0 f9 aa d5 06 4c 16 82 3f 72 f5 d9 c1 33 60 a9 3f
       0.008831590612961447 0.04956208936071506
0002f0 81 e0 e5 3e 1c e2 c3 3f 19 74 e6 87 d9 44 bd bf
       0.155337839805501 -0.1143318135058994
000300 d6 2c 2e b8 c1 59 b8 bf 3f 32 32 fb 26 7e c3 3f
       -0.09511957880583863 0.15228736176904253
000310 ea fd 46 fd 03 24 b3 bf 63 03 8c fd 67 dc ad bf
       -0.07476830419090388 -0.058322190952828
000320 ef 2b 4e 94 3e 99 9f 3f 9e e1 83 9f 61 a9 83 3f
       0.030858018686142626 0.009600413017765427
000330 3a cf fd a9 68 02 c3 bf ca a9 c8 7c 4d 7e ad bf
       -0.1485110120807976 -0.057604238016512335
000340 40 b4 30 85 04 74 c4 bf 68 d6 b0 38 13 2a c5 bf
       -0.15979057792120166 -0.16534652965644914
000350 02 34 84 cd a1 00 c6 bf 1b e3 23 52 66 7f ac bf
       -0.1718942883966577 -0.05565948250472826
000360 11 66 00 a8 cd 18 b5 3f 5c 01 37 de 1d 82 91 3f
       0.0824097190055897 0.017097918212813354
000370 05 51 25 85 4c aa 97 3f d7 1f 4d 98 7c e8 90 3f
       0.02311057627351067 0.01651186637471355
000380 ff 6b ac 8b f7 56 60 bf 83 a4 55 6b ec 90 c2 3f
       -0.001994594085215961 0.14504771462387475
000390 11 81 c2 11 a2 ba c4 bf 09 2c 27 08 7a f6 b3 bf
       -0.16194558970620013 -0.07797968577430948
0003a0 c0 5c f4 f0 7e c7 c4 bf 8b 6a 81 05 2a 71 8e 3f
       -0.1623381306205598 0.014864280980124952
0003b0 a5 2e 9f ab 07 e9 c6 3f 46 7f 3f 90 0a ef 8d bf
       0.17898651008578273 -0.014616091277218534
0003c0 4d 69 71 a0 bf fb af 3f f3 ca 2d e5 f1 71 b7 3f
       0.062467563948944795 0.09158241124331905
0003d0 7c d9 d8 b9 19 45 a7 3f 0e ba 51 b4 9d 56 ba bf
       0.04544906991616224 -0.10288415577245066
0003e0 17 ae a4 8b af 00 c4 3f 5f 2d 8e 72 8b 45 c1 bf
       0.15627092665214157 -0.1349348363258782
0003f0 27 3b 75 83 62 68 c5 bf 8f aa 5f 47 64 61 a4 3f
       -0.16724807185024668 0.03980553981076184
000400 eb 13 59 5a a2 64 a4 3f 90 ce fa 18 f5 db be bf
       0.03983027794723867 -0.12054378375870045
000410 7d b2 75 d1 32 69 aa 3f 06 ee a4 e6 06 7b b3 bf
       0.051583850926225396 -0.07609599238360695
000420 f3 7b 1e 7f 1d 25 c5 3f 6d 60 7c b7 bd 15 a9 3f
       0.16519516665445586 0.04899399628465138
000430 9f d7 89 a0 91 43 b4 bf cc c6 96 a6 f6 db ba 3f
       -0.07915601891894973 0.10491887633431957
000440 cd 3d 99 df 10 cb c5 3f 96 02 55 2c a8 73 b2 3f
       0.17025957982921938 0.07207728464437432
000450 85 63 23 88 65 d2 ad bf fc 27 c5 eb 09 fb 84 bf
       -0.058245823734700365 -0.01024444342387553
000460 6c 04 f8 c8 4e bf bf bf b7 db bf 55 b7 99 b7 3f
       -0.1240128746649291 0.09218927234165518
000470 69 f1 59 98 e7 59 c0 bf e4 34 ec 14 14 9f b0 3f
       -0.12774367274313228 0.06492734442527454
000480 ac ba d6 ad 56 72 b3 bf b6 b1 e1 d9 4c ef 95 3f
       -0.0759634184275721 0.02142067031711444
000490 c0 d4 35 ed 35 73 be 3f a9 16 98 e9 8b 67 bb bf
       0.1189454750181822 -0.10704874470692495
0004a0 6f 52 9a 4b 3d dd af 3f 75 cd b0 db 14 1a b1 3f
       0.06223479793439856 0.06680422175923247
0004b0 eb b2 cf bd 46 4c c4 3f d6 7b fe 58 d2 0a c5 bf
       0.15857776897555395 -0.16439275117315216
0004c0 76 97 ac cf 24 74 b0 3f ac a0 5e 8a 15 11 9c bf
       0.06427221365137634 -0.027408920832073733
0004d0 1c 3b 58 fc 24 32 c1 bf 73 cd 0e b7 37 df bd 3f
       -0.1343427879478093 0.11668728083787076
0004e0 21 d9 a4 db a0 11 b3 3f 2d 7a f2 a0 b8 bc aa bf
       0.07448773729706605 -0.052221078535911715
0004f0 e0 6c a3 5f 63 ee 75 3f c5 d2 0a 6a 32 56 9e bf
       0.005354297807765834 -0.029625690195376437
000500 8b a5 a8 38 2a ad 81 3f 45 47 26 8e 44 47 c2 3f
       0.008631067136849043 0.14279992047209525
000510 75 f4 8b 2f d6 99 bc 3f 13 0b 2d 7d a4 c5 b8 bf
       0.11172236119087293 -0.09676578575185273
000520 48 ae b4 86 4e 63 c2 3f 6e 7e 5d a5 45 4d c1 3f
       0.1436556012862289 0.13517065596078076
000530 92 d6 ad 63 c4 09 a4 3f 61 15 7f 96 98 a3 c0 3f
       0.039137017410138544 0.12999255512674338
000540 d3 03 87 90 0c 10 c2 3f d9 d7 40 e4 15 7b b5 3f
       0.14111477906229072 0.08390938589658904
000550 73 d2 11 2e 7b fa c1 bf 25 a7 04 9d 52 5f c6 bf
       -0.1404565787267021 -0.17478401820090386
000560 39 ce 57 da 7f b9 b9 bf 61 f0 83 2c 0a 1f b6 bf
       -0.10048674660338798 -0.08641112887193138
000570 8e cc e4 a1 5e 52 9c bf 86 4b 5a 47 57 1b b4 bf
       -0.027657965308389758 -0.0785421895218815
000580 9e 42 6f 00 11 93 b3 bf 6c 00 98 0c 04 f4 c2 bf
       -0.07646280537233927 -0.14807177176408304
000590 c3 80 9a 68 35 30 b9 3f 04 44 40 3b 71 11 a3 bf
       0.09839185527607967 -0.0372424492671897
0005a0 b1 6c 56 09 d8 67 a1 bf b3 88 25 3a 6a cd c1 bf
       -0.033995391025393736 -0.13908126677694596
0005b0 91 d3 7e 9f e5 41 b7 3f a4 aa c2 41 f8 08 a5 bf
       0.09084925788813637 -0.04108405878772217
0005c0 2b 4b 59 f1 a0 8b 81 3f 66 e5 24 51 d7 9e ad 3f
       0.008567101827031095 0.05785248628167032
0005d0 73 5e 89 31 a2 89 9a 3f ff 94 72 6f b4 61 b6 3f
       0.025915655396913494 0.08742835732353525
0005e0 f4 9c 54 df a1 bc be bf 63 30 f4 b1 1a 5b b0 bf
       -0.12006580068974754 -0.0638901409585642
0005f0 46 0d fd ab f5 42 c1 bf 7b 89 5f fd 4f 9d b7 3f
       -0.1348559465205687 0.09224414764279303
000600 ef 40 2e 38 8d 36 c2 3f 5a 18 69 de be 9e b1 bf
       0.14228978388974364 -0.06882851533836867
000610 64 85 fd ac 3d 37 c4 bf a7 1a a4 e9 1e 76 b5 bf
       -0.15793581911843113 -0.08383362964751005
000620 9a 1e 3c 00 73 45 be 3f 08 46 c4 66 58 e3 b1 3f
       0.11824721103414007 0.06987526425316315
000630 5e bd 15 cb a8 ad be 3f ad 80 1a e2 77 0c b4 3f
       0.11983733137252758 0.07831525106530775
000640 d6 ed d2 d5 cb be c2 3f d4 2b e5 b7 4d 54 c5 bf
       0.1464476388990607 -0.16663524131067098
000650 04 16 b0 82 d1 95 bc bf d2 53 c9 85 ea ec a4 3f
       -0.11166104736920351 0.040870026427604636
000660 33 17 48 79 a0 d6 84 3f 79 c4 ec 2e a3 61 c3 3f
       0.010174993230076623 0.15141715804341851
000670 7a 94 5e 6d 16 76 b9 3f 5f 72 b9 65 88 b7 c4 3f
       0.09945812387612021 0.16185097662936962
000680 ff ae 86 73 da 73 b4 bf 69 1d 61 83 d2 27 b3 3f
       -0.07989278145276656 0.07482639033798012
000690 3a 4b 05 87 26 ed 96 3f 10 c0 e4 97 f2 fd bb 3f
       0.022389032355316398 0.10934368332232247
0006a0 fd 5c 10 28 72 cc a0 3f ef d3 3c a3 85 5b ba bf
       0.03280979861318121 -0.10295901522916016
0006b0 3a dc b5 19 15 b5 b8 3f 60 dc 07 d5 d2 3d c6 bf
       0.09651309850401982 -0.17376170541658364
0006c0 a5 8e 59 5d 4b ed ab bf bd 1d 10 75 c7 ea c1 3f
       -0.05454478754543616 0.13997739044155635
0006d0 ef 9b 7a b5 22 52 5d 3f 24 34 1c 83 f2 d0 c3 3f
       0.0017896021799204095 0.1548140659510021
0006e0 01 14 c5 9f 47 0f c2 3f 83 b4 5f 03 c7 30 b8 bf
       0.14109130193006084 -0.09449428398484554
0006f0 eb a8 30 e1 78 02 8a 3f 07 7e fe aa 51 8c c4 3f
       0.012700027820831091 0.16053219651529124
000700 08 e6 14 96 6b d2 b4 bf fa 61 48 3f 0d 0f b9 3f
       -0.08133575834371964 0.09788592143048183
000710 69 47 f8 b1 df de c4 3f b5 fb 21 d7 c4 32 bc 3f
       0.16305156888898445 0.11014967205299693
000720 b0 9e da 5e cc 43 c1 bf 66 90 6f 77 de fd a0 bf
       -0.1348815405992716 -0.033186866836133075
000730 63 c9 14 76 4a ba a1 bf 2a c3 73 b2 19 13 bd bf
       -0.03462441150112985 -0.11357269865744671
000740 30 b5 c4 e8 1c e4 8f bf 0a 1d 87 7f 57 cf c4 bf
       -0.015571809628989713 -0.1625775692648193
000750 6d bf dd ab 02 d4 6f 3f 43 65 8e 06 f3 8d b3 bf
       0.0038852741408205633 -0.07638472471298478
000760 19 7c 37 5f ff c9 9e bf e7 87 ea f5 a1 66 b8 3f
       -0.030067434488838616 0.09531605008899612
000770 7f 5b 1e 5b b1 2e 51 3f a2 f5 ca 10 1d 43 b4 bf
       0.001048730086471855 -0.07914907131176688
000780 73 b9 f9 b4 5c cc c3 bf d0 66 f9 6e 19 b4 a3 bf
       -0.15467413746541644 -0.038483423992784815
000790 8b f5 dd ae d7 25 be 3f ff 1c 27 44 fa f8 b2 3f
       0.11776493090834188 0.07411159671675092
0007a0 da 8e 69 89 17 0b c2 bf 0d 31 c8 d0 f8 3a 96 bf
       -0.14096349916063994 -0.021709335082094095
0007b0 db bf 2e 40 31 bb b7 bf c4 43 dc 68 ee aa bd bf
       -0.09270007912596105 -0.11588945446079807
0007c0 c1 c4 6f d6 4d 69 36 bf fd f6 4f 5b fb 47 c5 3f
       -0.00034196997006492527 0.1662592120991845
0007d0 92 0b 6a 06 4e f3 94 3f e3 38 c9 14 bb f0 a7 3f
       0.020459384099477847 0.046758505141598204
0007e0 6c e2 d5 c9 68 2e c2 3f 33 30 df 5a 07 e2 a0 bf
       0.1420413003468356 -0.03297446235919246
0007f0 1b 76 a7 33 21 ce ac 3f ca 65 69 0e e8 4a c0 bf
       0.05626014476341031 -0.12728596404740095

weight_hh_l0 f8 [128, 32]
000000 7c b9 2f 3b 76 cd b8 3f c2 87 a7 92 0d 25 94 bf
       0.0968850988863092 -0.01967259605033412
000010 30 99 40 7a 07 c5 ab bf d4 bd b3 4d ae aa bf 3f
       -0.05423758857095817 0.12369813344024944
000020 f6 15 53 ac c2 96 26 bf eb af c0 49 25 bb 90 3f
       -0.00017233969098222308 0.016338904024607286
000030 a1 08 ce 04 ff 26 b6 3f 80 f5 e9 db 7d 9c 91 bf
       0.08653253428750186 -0.017198530719260585
000040 53 f3 0a 82 a5 f5 98 bf d2 01 f8 0c 8f 1f 71 3f
       -0.02437456709116088 0.004180487434041829
000050 93 ad d1 fd d3 a8 9a 3f 06 e8 27 f7 15 d3 7f 3f
       0.026034653059850376 0.007769666483449461
000060 38 85 0e c4 6a d5 ba 3f 09 23 af a7 8a 08 c5 3f
       0.10481898581067106 0.16432316959096507
000070 89 b7 67 97 5f e9 a0 3f e9 ec 9d 15 9c e5 b9 bf
       0.03303049777228668 -0.10115981605297332
000080 db 5a 0b 50 dc ec b1 bf 7c 6a 18 45 ed 8b 98 bf
       -0.0700204558773793 -0.023971278517004965
000090 47 db f7 e5 cf c2 a8 bf d6 26 07 56 90 e3 8f 3f
       -0.04836129839161756 0.015570762276996868
0000a0 a2 98 f3 9d 9c b5 bd 3f 58 87 93 7d 99 4e bf bf
       0.11605242592085799 -0.12229308429553265
0000b0 b9 74 b9 1b 25 57 c4 3f 86 27 32 43 fe 0c c7 3f
       0.15890945295078554 0.18008402138758245
0000c0 0a 68 8d dd 90 35 c5 bf 07 df ef a3 a5 bb ae bf
       -0.16569720094668156 -0.06002538324531597
0000d0 7a 21 6e 2e c9 58 c3 bf 3b 1f 5e 85 c7 c5 a4 bf
       -0.15114702956294562 -0.04057143691085093
0000e0 fc 4d 14 5a eb 5d b4 3f 23 df 96 25 63 09 bb bf
       0.0795580954475596 -0.10561198871334603
0000f0 0a 7f 11 09 79 41 a6 bf fc 5d 3e c3 d1 a4 63 3f
       -0.04346826778123443 0.002397927944865817
000100 f1 a8 90 8f 5c d5 9f 3f 78 9c 85 60 89 bc be bf
       0.03108734728099533 -0.1200643406533447
000110 f0 4e cd a7 a6 f4 ab 3f 74 74 62 8c 95 f9 b8 bf
       0.05460091398586353 -0.09755835225446835
000120 c6 67 08 ff 24 ca b0 3f b9 96 aa 43 c7 38 a6 3f
       0.06558448053729568 0.0434019346333065
000130 52 43 ca 3d 61 70 c0 bf 7d dd b6 84 97 0a b1 3f
       -0.12842956082433915 0.06656786909194597
000140 65 65 fd 2a 1f b8 c6 3f da b3 5d 9e 72 5d 09 3f
       0.1774939498816749 4.837995565663113e-05
000150 39 88 0c 4a 3e f5 46 bf ed 27 bb 83 bb 75 bb 3f
       -0.0007006220003840164 0.10726520505991717
000160 55 02 8c b5 22 e6 c2 3f 2d fb 7f dc e1 fc 8b bf
       0.14764818062396282 -0.013665928403495531
000170 79 86 8a 59 dc d1 b9 bf 6d 40 14 00 b5 69 b0 bf
       -0.10085847078382838 -0.06411296131068563
000180 bb 9a 5f ee 38 1b c3 bf 86 eb 03 76 18 a9 c6 bf
       -0.14926826133087964 -0.17703538668123658
000190 ff b8 1e 93 a6 a0 c4 3f ef 7e 85 fc d1 82 b4 bf
       0.16115266975015882 -0.08012115874361901
0001a0 f0 52 fd 92 da 9d b8 3f bd e1 e5 f0 11 08 a1 bf
       0.09615865791904432 -0.033264694839945964
0001b0 02 bd 8e 7a cf 57 c3 3f c7 cd f1 d7 e6 be a2 3f
       0.15111726269012854 0.03661271463434051
0001c0 5e 83 72 b2 9d 29 c0 bf 4f 9d 00 36 cf c2 c0 bf
       -0.12627001965759183 -0.13094511162601427
0001d0 dd e6 c9 81 1b ef bc bf cd 34 19 49 fc 55 c1 bf
       -0.1130234901301281 -0.13543656892071568
0001e0 c3 ca fd 0d fc 29 a0 bf 99 6d 6f 84 f6 73 c0 bf
       -0.03157031698983339 -0.12853890863958098
0001f0 02 01 09 94 f4 4e b0 bf f2 a3 9c 87 a4 c4 c8 bf
       -0.06370476354732449 -0.19350105878518736
000200 a7 cc 60 10 9d da bc bf 56 75 c4 94 b8 eb 83 3f
       -0.1127107777581836 0.009726945915242407
000210 15 38 fb 89 5e 18 bb bf 12 68 bc 1d ff a4 bc 3f
       -0.10584059590038948 0.11189264751411113
000220 d1 70 f9 89 7d 50 a8 3f 3b bb c5 20 d5 7e b9 3f
       0.047489092915130045 0.09959156084162839
000230 15 28 9f 2c 97 b8 c4 bf c1 4c 3c 59 cc b6 be bf
       -0.16188325575632292 -0.11997677973367883
000240 0f dd 11 a5 89 06 bb 3f c9 60 37 80 20 56 b4 bf
       0.1055685070040122 -0.07943919306069626
000250 4f 63 19 49 78 c3 66 3f 62 55 ad fd f7 56 b3 bf
       0.002778754170133991 -0.07554578727043329
000260 98 eb 9b bb 7a 06 a5 3f 0d 8b 18 53 ec f5 98 3f
       0.04106505909108832 0.0243756223409362
000270 59 95 e4 f0 7f f3 bf 3f 29 cc 5d 36 42 9f a7 3f
       0.12480926161932383 0.04613692201282788
000280 fa 03 c7 aa 41 5f b4 3f cf b0 38 b7 58 9b c5 3f
       0.0795784990250609 0.16880330034599075
000290 9f 4f dd bf aa 7b af 3f db a8 e8 f6 b0 5a b9 bf
       0.06149037925811673 -0.09904008892104647
0002a0 cd 96 87 f5 98 c0 c4 bf 9f 33 e0 4a f5 2b a5 bf
       -0.16212760914566218 -0.041350999250517655
0002b0 f3 e6 5a 11 ea c5 c0 bf 86 75 8e e7 df e9 ba 3f
       -0.1310398659459718 0.10513114360079187
0002c0 29 b5 05 6e cd 27 a6 3f 2e b1 b9 ec 55 1e bd 3f
       0.04327241867108917 0.1137441351835988
0002d0 2b 5d 10 fa 90 17 a3 3f db 5c f4 d0 90 a0 b9 bf
       0.03728917171991449 -0.10010628796986813
0002e0 4f f3 43 c3 95 33 c5 3f ba a5 74 dd c4 9e c2 bf
       0.1656367495960702 -0.14547024548782678
0002f0 9c 33 4c 58 22 c6 52 bf d1 7b 9f 8f 5a 69 93 bf
       -0.0011458716773546712 -0.018956580177355967
000300 61 c3 ee ea 38 38 c3 bf 98 04 d3 23 17 76 b3 3f
       -0.1501532694942638 0.07602066635719706
000310 66 65 25 96 e3 23 b3 3f 33 8f c5 5c c1 20 c4 bf
       0.0747663728301596 -0.15724961309308014
000320 2c 53 7b 4d 2e 30 c1 bf 65 74 00 bf ff 45 a4 bf
       -0.13428286345756513 -0.03959655005039834
000330 7d 60 25 49 d3 e9 b2 3f 19 a6 25 b3 58 75 be bf
       0.0738803914622412 -0.11897806523997935
000340 b3 64 e2 75 3f 7e a2 bf b7 6b 4d c5 64 31 c1 bf
       -0.03611944498079236 -0.13431987413318122
000350 b6 fb 4b b0 29 09 b8 3f e4 c9 14 98 a8 0f ba 3f
       0.09388981393929793 0.10180143082542475
000360 88 69 6c 2a b4 f0 c8 3f 62 4b 39 13 91 79 a3 bf
       0.1948456961770939 -0.038036855312973086
000370 3c b4 54 09 81 6a c6 3f a8 1d 94 51 75 35 c2 3f
       0.1751252456246294 0.14225641711548787
000380 48 19 8e e1 c6 87 c4 3f 0e 24 2c f5 80 48 7d 3f
       0.16039358151847183 0.0071492230806678
000390 85 56 8d c5 28 c2 c6 3f d2 81 38 0a 42 96 ba 3f
       0.1778002705201979 0.10385525464562953
0003a0 80 99 42 53 91 f3 af 3f 9f 80 9a 49 5c c8 c0 3f
       0.06240514890059767 0.13111451715395092
0003b0 72 7b ab 26 e1 57 b5 bf 03 8d b7 dc 6d 0f be 3f
       -0.08337218469703858 0.11742293013189813
0003c0 92 cb 2b b4 90 dd b7 bf 14 ff ae 1e 57 c1 96 bf
       -0.09322456740100751 -0.02222190975930889
0003d0 28 34 36 15 95 80 ba 3f 8b d3 77 12 df 38 c2 bf
       0.10352451103081306 -0.14236057664643584
0003e0 17 a8 14 80 c0 02 a0 bf 41 2d 17 dd 55 50 bf bf
       -0.031270995745515666 -0.12231957099645731
0003f0 d1 1b 19 76 8a 14 be bf 60 95 b4 18 c4 89 93 bf
       -0.11750092871908115 -0.019080223091028414
000400 a0 eb 45 e1 f6 52 b0 3f 4c d0 8e 93 b8 9b c1 3f
       0.06376593589622681 0.1375647278306381
000410 ee 70 d7 a9 35 e8 c4 3f fb bc 65 c8 42 2e bd 3f
       0.16333647530598888 0.11398713486208926
000420 93 64 5b 67 a3 9c c6 bf 05 38 ff 95 43 50 80 bf
       -0.17665522143105203 -0.007965591445010753
000430 78 9a d6 3a bb 07 b8 bf 65 f0 28 95 29 29 8d bf
       -0.09386797129136848 -0.014238667358874755
000440 8a fd ce f2 ea 56 bf bf 6c e4 8b 05 09 65 c3 3f
       -0.12242000987952487 0.15152085085699996
000450 0d cf 5d fe 9f f0 c5 3f 76 e9 7a 2d e7 03 c2 3f
       0.17140579147564275 0.1407441112585947
000460 55 3d 6f 72 db d6 a1 bf e8 82 f8 d2 e7 1f 6b 3f
       -0.034842355460223 0.0033111121954479857
000470 a0 f7 85 95 f2 6a a7 bf a8 11 a4 2d a4 b0 ad bf
       -0.04573782038913454 -0.057988291331670994
000480 18 bb 0f e2 c4 8e b9 3f 76 9e 9a 84 29 16 80 bf
       0.09983473319128355 -0.007854771003010113
000490 a1 75 7b d6 e2 4c b0 3f b3 e9 6e 8b 60 3f b5 bf
       0.06367318855651273 -0.08299830822117009
0004a0 30 0c 20 2f a5 94 b6 bf 07 dc 3d 93 e6 9d 9e 3f
       -0.08820564651982532 0.029899218308369082
0004b0 a8 92 31 21 c9 13 c2 bf 08 95 a8 4c fd 77 a1 bf
       -0.14122881050856972 -0.03411857186100958
0004c0 bd 06 90 7e 0c 1e b8 bf ac c1 b3 9f 1c 47 9d bf
       -0.09420850839526458 -0.02859158253426279
0004d0 9a 8a fb 46 a9 0f 8f bf a0 8f 1d 2b 15 29 c0 3f
       -0.015166590193478147 0.12625374417541213
0004e0 b6 c6 21 39 97 06 83 bf 0e ab da 72 ad c3 bc bf
       -0.009289914542225258 -0.11236080221230457
0004f0 df 4f 47 c7 ee 90 a0 bf 30 87 15 93 0d fc a7 bf
       -0.032355748964306257 -0.046844886974908184
000500 09 05 95 60 5e 49 c4 bf 32 8c f8 7e d9 24 c8 bf
       -0.15848903385089155 -0.18862456035376024
000510 42 c8 41 a4 3e e5 b3 3f 71 12 02 8b 9c 8a 88 bf
       0.07771674642734275 -0.011983130447569242
000520 56 8c cc 6d df e6 ad 3f 9e 65 59 b0 c3 6c a3 bf
       0.05840204444236778 -0.037939181591990265
000530 f7 c1 dd bd 8c 1a a6 3f aa b1 ed 09 e8 15 60 3f
       0.04317130868628632 0.0019635707862361755
000540 13 16 f9 8d d2 e9 c3 3f 22 79 87 08 ff e0 c4 3f
       0.15557319576525738 0.16311633984055002
000550 8c e3 f3 73 e4 14 b2 3f a9 7a 00 ae 9e 41 ba bf
       0.07063129263759843 -0.10256377933590478
000560 53 9f 71 10 be bd c2 bf 4a 2d 3e 45 c8 9a c7 bf
       -0.14641547968789811 -0.18441108113288812
000570 11 24 c5 95 14 8c c0 3f ee 09 c1 d2 93 e6 be 3f
       0.12927491486542 0.1207058324371599
000580 ea d8 05 43 4d 70 bd bf 7c 5b 30 58 43 6c 9f 3f
       -0.11499483953761894 0.03068642831575684
000590 a2 62 a7 f6 fa a1 83 3f 1e db 02 20 cd f5 9e 3f
       0.00958629670360384 0.030234532431417376
0005a0 98 fd 3b 42 8c 74 b1 3f d3 92 0a 88 4d ef ba 3f
       0.06818462960290217 0.10521397181816931
0005b0 97 05 e7 89 a0 3b c2 3f ec 51 71 74 b8 84 c1 3f
       0.14244467481152576 0.13686280904461456
0005c0 68 86 21 0f 0f b7 b2 3f f8 3c 3f e8 d0 c4 c3 bf
       0.07310575599105962 -0.15444384899317476
0005d0 46 37 b6 6a 7d 31 b8 3f 67 ad ba ba e8 bb b2 3f
       0.09450515609043206 0.07317976530855717
0005e0 98 82 71 c6 2d dc a4 3f 38 3d 81 71 8b 57 c8 3f
       0.0407423310032346 0.19017165224293264
0005f0 e9 27 12 33 79 ec ab bf 4c 06 87 82 60 6f b4 3f
       -0.05453852413582167 0.07982447802262377
000600 01 8d 19 61 5d a1 c4 bf 8d 88 ab f2 be 34 9a 3f
       -0.16117446175767472 0.025591834603695452
000610 9b 24 d7 61 7f 67 bf 3f c7 95 97 f2 e5 9d b0 3f
       0.12267299784356782 0.06490933582934764
000620 a8 3c 8f de c5 74 be bf e9 f1 a0 bb 67 db b1 3f
       -0.11896931346494688 0.06975410776880832
000630 c8 68 2a 86 40 64 c1 bf 28 05 94 88 ad 85 a5 bf
       -0.13587194968278582 -0.04203550617422486
000640 7a 9d dd 59 9f 13 c3 3f fc 94 69 99 1a b4 a1 3f
       0.14903633010838374 0.03457720873556444
000650 9b 57 71 b0 ed 45 c1 3f a8 47 4d 73 8d 9d b4 bf
       0.13494654765480338 -0.08052906098353552
000660 a3 9c 9a 37 1a 3e c4 3f 7e e7 26 df 81 ed c6 bf
       0.15814521517788646 -0.17912314792721057
000670 4b fd e1 82 e9 98 b6 3f b1 99 a2 86 1b 3c c6 3f
       0.08827075429325253 0.1737093360326987
000680 9f 81 d9 7c 36 51 b8 3f 43 7d 53 d4 b9 89 c2 bf
       0.09498920963370104 -0.14482806079375096
000690 6e 62 10 f1 c5 f3 85 bf 56 7b 48 ab 89 3a ad 3f
       -0.010718866748036873 0.057087232740960545
0006a0 e6 ce 8b d0 83 09 a8 3f c3 d0 3d db 8d dc b2 bf
       0.046947592932978385 -0.07367788889479514
0006b0 8a b1 1b c6 57 e8 bb bf 9e e5 60 62 06 a0 c1 bf
       -0.10901402079225 -0.13769607356679797
0006c0 dd e5 53 e4 c4 cf b4 3f 09 2c 40 bc be 15 a3 bf
       0.08129530500800493 -0.03727527664167247
0006d0 8a 06 6c 6b b9 a5 b1 bf 01 26 3b 68 8a 87 c4 bf
       -0.06893500206572348 -0.1603863724651973
0006e0 8b 35 8b ff 48 f4 b6 3f 89 75 fc f8 45 a0 b3 3f
       0.08966499556409795 0.07666432694209936
0006f0 f7 49 b2 bf 43 86 b1 bf 36 a9 4f 89 c4 06 bd bf
       -0.06845496587838072 -0.1133845172150004
000700 8a b0 6f f6 fa 33 c0 3f d3 c3 18 4a 0e 3c c1 3f
       0.12658631356260158 0.13464525812153613
000710 13 c9 43 fd c0 71 aa 3f 94 8d b6 8d d2 40 a7 3f
       0.05164912311183136 0.045416431235277305
000720 48 80 a5 6b 1b 88 ad bf 75 c3 83 5e d9 81 96 bf
       -0.05767903985065509 -0.021979710000724368
000730 b8 10 4d 90 c8 e5 c6 bf 2d 39 d7 df 06 18 b8 bf
       -0.1788874344439415 -0.09411662068234668
000740 fe 67 65 d2 0a 37 a6 3f 6f d3 cd b2 39 97 b0 bf
       0.04338868921577442 -0.06480751624424184
000750 2a db f2 f4 73 9f b6 3f 98 e9 ce b2 7e 46 c3 3f
       0.08837055902664007 0.15058883410331414
000760 2e 87 37 88 42 e6 c1 3f a6 6f 2e d9 82 1c 74 3f
       0.13983947421280035 0.004910002829003368
000770 02 2b d0 7e 47 e7 9b bf 3a 3c 7c 4f de dc 98 3f
       -0.027249447932301336 0.024280046082875574
000780 29 a8 df 0d a5 97 a4 bf 05 24 20 60 80 72 c5 3f
       -0.040219457572519275 0.16755680745725968
000790 91 48 84 e9 1c 43 c3 bf 69 38 d3 07 af 77 b1 3f
       -0.15048562433418458 0.06823247853319149
0007a0 cf ac f8 52 86 46 71 3f c5 4b ea bb bb d4 c5 bf
       0.004217648223441019 -0.17055460620448862
0007b0 b5 dc 5b 19 d6 81 be bf 71 45 87 66 a1 49 c3 bf
       -0.11916864508735865 -0.15068452364225096
0007c0 b2 ae 79 65 fb 7f b3 3f d5 bc 42 84 c4 0f ba 3f
       0.07617160060334063 0.10180309514065596
0007d0 89 ee 9d a4 5a c0 c1 bf 2b ab 19 f3 fb 63 aa bf
       -0.13868268049178692 -0.051544068742109005
0007e0 6d 83 02 f6 15 e9 c3 3f a8 cf f7 8a 95 fb a6 bf
       0.15555071365545406 -0.044888184751385396
0007f0 f6 60 a0 71 b9 4f c6 3f 6f a4 e0 10 35 fd a0 3f
       0.1743079953018946 0.033181818304293446

bias_ih_l0 f8 [128]
000000 40 a7 4e 75 1e 88 bc 3f c4 ee 1f 67 d8 2b b5 bf
       0.11145201076456335 -0.08270027654355788
000010 e5 52 0a 42 08 e6 9f 3f d1 fb 52 83 0b ed c4 3f
       0.031150940924436283 0.1634840384703851
000020 cf a5 0d 0d 48 90 c4 bf ef 9a 54 26 57 d2 c4 bf
       -0.1606531203972694 -0.16266908046346581
000030 02 11 97 62 b8 4b c0 bf 0f 59 0c 48 2e d6 a0 bf
       -0.12731079877824675 -0.032884069724035674
000040 30 48 6e 29 27 84 9d 3f 12 1b 43 04 91 a0 c4 3f
       0.028824436095938377 0.16115009983169465
000050 0b 1a 9d 71 cc 6f be bf 0c 61 1e 2a d0 50 c2 bf
       -0.1188934113862176 -0.14309122139525987
000060 cb e9 ca 03 fc c9 b9 3f fb 85 05 fd 48 9b c2 3f
       0.10073828785508636 0.14536392550057528
000070 19 27 9c b5 a6 84 bb 3f e3 ff e0 5e 95 de aa bf
       0.10749284681164929 -0.05247942717733147
000080 f7 47 fe 33 53 d2 aa 3f 00 7e 02 31 64 f6 b4 3f
       0.052385902497135754 0.08188463398482071
000090 c0 85 c3 57 3f d0 b4 bf 4f ee 47 1b 6b 35 c6 bf
       -0.08130260365171349 -0.17350519973830322
0000a0 a3 ac e8 ac 0f d6 b3 bf d7 d6 b7 48 ba bb b8 3f
       -0.07748506518753344 0.09661449694962286
0000b0 fb 1f c8 d6 7e be c0 bf 87 b3 52 dc 3c c7 9a bf
       -0.130813460229774 -0.0261506566500205
0000c0 69 e6 d5 a8 78 83 ba bf c9 eb 27 c2 46 d5 b3 3f
       -0.10356859323464963 0.07747308960089962
0000d0 9a 1c 63 a7 3c 2d b5 bf 78 20 75 df d3 59 c2 bf
       -0.0827215107593581 -0.14336632166873975
0000e0 a6 8c c9 74 d0 c2 a0 bf aa 1d 09 06 0a c7 9c 3f
       -0.03273631501795053 0.02810302411878999
0000f0 92 a4 50 37 61 b2 74 3f 61 55 71 50 af 4d b0 bf
       0.005052928686418616 -0.06368537630017591
000100 89 84 6b de c7 ed ba bf 25 37 69 1e 0b 55 af 3f
       -0.10519074611831249 0.0611957049010086
000110 f2 7a 2a 32 5c fd b4 bf b2 7e a1 09 4a 0b c2 bf
       -0.08199096894029959 -0.14096951933151086
000120 f7 b1 c3 39 d9 ee c6 3f 38 05 3e 93 c1 c3 bf 3f
       0.17916407890824335 0.12408075184614098
000130 7b 1e b1 4f 7c 98 c2 3f 88 28 87 10 66 8f bc bf
       0.1452784909363237 -0.11156309035792067
000140 d3 88 26 06 7c 07 9e bf d3 60 18 1a 0c cd 9e bf
       -0.0293254259828551 -0.0300790682723296
000150 b5 7e dd 29 f4 a7 c2 bf b4 cd 17 88 f2 41 ba bf
       -0.14575054210853514 -0.10256877729971486
000160 d3 8d 3d be ab 65 c0 bf c6 ed c8 8d 96 fa b3 bf
       -0.12810274876674885 -0.07804242097420575
000170 e5 71 62 ba 99 b6 bd bf 0b 63 4e 05 30 66 b7 3f
       -0.11606751251606047 0.0914030087427699
000180 07 5c aa ba ac 31 b5 3f 10 87 84 0d 9d 8b b9 3f
       0.08278922612440463 0.09978658275624874
000190 fd 6d 11 92 d9 0b a0 bf 6a 49 c2 14 66 4b ba 3f
       -0.03134040744836495 0.10271299368677025
0001a0 62 1d 79 95 c6 e5 95 bf 75 0d bd b7 87 5f bc bf
       -0.021384337304224295 -0.11083267436793227
0001b0 5d 01 58 15 aa 3f b7 bf 0d 41 4b 8f 8f 91 99 3f
       -0.09081519147003321 0.024969332810372658
0001c0 25 77 59 39 73 a6 b4 bf 85 d8 62 be 9a 9c b4 bf
       -0.08066482687123917 -0.08051459453676742
0001d0 27 55 0d de 29 3a c3 3f 12 b6 95 3a 96 65 bf bf
       0.15021251051317927 -0.1226438420323677
0001e0 57 a3 7b a8 ce f3 93 bf 29 16 28 46 dc e2 b2 bf
       -0.019484738381751878 -0.07377411568457916
0001f0 73 39 d0 05 89 5d ba bf 6b 26 82 06 37 d8 ae 3f
       -0.10298973457267895 0.060243339104158654
000200 cc b7 17 ce 69 fb 9a 3f ab f1 39 5d cc 3c a8 3f
       0.026349690631768216 0.04733885419861691
000210 6b 46 1b ac d1 c2 bf 3f 1c 73 51 7a 8e 68 c3 bf
       0.1240664525205603 -0.1516283128029493
000220 ed dd e8 0e 7f d1 ad bf 4b 27 10 23 50 30 c3 3f
       -0.0582389550876846 0.14991189682069214
000230 bd 4f ed d6 20 ad a1 bf 92 f2 78 b6 56 ed b9 bf
       -0.03452398894901829 -0.10127775149244148
000240 94 80 ae 26 a0 28 7f 3f 83 fc 32 6f ce a9 ae bf
       0.0076071029569960875 -0.059889269899479756
000250 5d 82 3d 5c b1 3d b2 3f 1d a7 8f f9 7a ad ba bf
       0.07125385763129928 -0.10420960037995682
000260 52 1a 20 23 05 8f c3 3f 9a b7 7a 2e 0d 96 b7 bf
       0.1528021260748625 -0.09213335404157733
000270 90 51 40 2b 01 66 97 bf 38 37 34 c9 a0 37 a5 3f
       -0.02285005403980872 0.04144003349402542
000280 90 e1 8f c4 69 53 7e bf 6d 18 76 ff db 16 2c bf
       -0.007403767734097136 -0.00021430430909336347
000290 a6 fd f7 6a 8e a8 b6 bf b3 c7 72 8c f5 f9 b0 3f
       -0.08850946532765266 0.06631407431521445
0002a0 16 92 3e 1c 4a c9 91 3f 1c 34 6e 99 dd 99 be bf
       0.017369420980360394 -0.11953530307637589
0002b0 12 82 b4 78 d9 ee ae bf d1 26 ca b0 77 5e be bf
       -0.060416027054319824 -0.11862896028665239
0002c0 bc 43 0b 54 d0 96 c5 3f ff 46 82 55 d5 b6 bc 3f
       0.16866497138701486 0.11216481530780341
0002d0 53 54 53 27 70 6a c4 3f 70 3d b0 5a b3 2f bb bf
       0.15949823303404517 -0.10619660343239956
0002e0 f3 5b 85 18 1e 5f b1 3f 65 8c 41 ad 79 01 73 bf
       0.06785762880950567 -0.004640078830649851
0002f0 b3 58 9c cc 55 51 c5 3f 38 32 5b ec 88 d7 c0 3f
       0.16654465189703202 0.13157760182220257
000300 0d cf 60 aa 83 c6 b8 bf 09 e4 01 5a cd ad 8d bf
       -0.09677908811209708 -0.014491657552058628
000310 43 ad 5f db 54 a4 92 bf 52 43 7b 3d b0 85 b1 bf
       -0.01820499981833491 -0.06844617367756925
000320 44 1f ea 5f 34 c1 b6 bf de ab ad 18 8b fc c0 bf
       -0.0888855680624348 -0.1327070112705248
000330 de 46 1b 41 43 a2 af 3f f4 09 3b eb 31 2f c4 bf
       0.06178484124906246 -0.1576902769648566
000340 2f 77 2f 58 bf dd a0 3f 39 09 31 f7 25 67 ba 3f
       0.03294179870111546 0.10313641819906118
000350 36 5a a4 45 33 be c4 bf 72 ee 99 6c 5b 88 a2 3f
       -0.16205445194710116 0.036196572310441946
000360 5b c7 4d cf 31 e9 c0 3f 41 9c 1d cf 3c 12 c5 3f
       0.13211653349167815 0.16461906540937046
000370 40 46 cc 4a 8f d7 a4 3f b7 00 56 5d 46 c0 bb 3f
       0.040707090263947254 0.10840263155660322
000380 a5 7a d7 54 be 44 a8 3f 42 3b 89 de 7e 6c 76 3f
       0.047399471146254236 0.005474563201075368
000390 6f f0 32 25 2b c6 c2 bf d3 c9 9d 23 e2 ab b5 3f
       -0.14667262379032617 0.08465398187198696
0003a0 73 a5 51 e2 51 8c c3 3f 05 7a f5 1c 2a 28 c6 3f
       0.15271972227791827 0.17310072340019658
0003b0 c8 d1 f8 80 d0 d8 c3 bf 47 51 07 fd 1a d7 c1 3f
       -0.1550541524644713 0.13937699656401945
0003c0 e2 81 87 d6 41 72 c0 3f 36 3d 54 0e 3d 52 87 3f
       0.12848685240807273 0.011387326240337541
0003d0 84 2f 33 af c0 2f a1 3f 72 a3 e6 1d a5 57 b1 3f
       0.03356744898482503 0.06774360637667856
0003e0 b2 08 11 22 99 65 ab bf de a0 10 d9 cb 76 c0 bf
       -0.05350950756884866 -0.12862537478327501
0003f0 f1 41 e7 fe fc 05 bd bf 98 32 73 15 93 c1 b6 bf
       -0.11337262366510693 -0.08889121316605963

bias_hh_l0 f8 [128]
000000 72 f3 fe 51 76 5d c0 bf 3a 30 1d ef e7 42 9f bf
       -0.12785223964410936 -0.030528663606034658
000010 be 0f 7f 96 41 b3 92 3f 42 e7 16 c5 19 c8 b3 bf
       0.01826193314606405 -0.07727204381708666
000020 81 e2 e0 9b 9f fa bf 3f b9 79 c4 b7 d4 03 bb bf
       0.12491796069742557 -0.10552720533858108
000030 83 bf 1f 87 32 8e 85 bf 91 99 ff 66 9d 6f c1 3f
       -0.010525126217515673 0.13621871499271923
000040 dd 94 95 39 1f 4f bb bf a4 b0 1c ff ef c7 c4 bf
       -0.1066760554873158 -0.1623516078628927
000050 1d 5f c6 de 92 e6 c4 3f 01 8b bb 99 fb 35 a1 bf
       0.16328655126266592 -0.033614981189904476
000060 db de 73 78 32 c5 b2 bf f7 aa 8d 5e fd 70 ba bf
       -0.07332148972261214 -0.10328658636505482
000070 d4 19 e3 70 ed c6 a9 3f 8d b6 88 bd 71 f8 c3 bf
       0.05034582140938296 -0.1560194182833822
000080 af af aa de 93 67 b7 3f 2c 00 a2 53 64 d7 c0 bf
       0.09142421899986063 -0.13157323917039443
000090 b2 b5 bd 11 fc c4 96 3f cf e6 e3 8f 17 cc 9c bf
       0.022235811789348588 -0.028122299344409293
0000a0 1d 50 51 03 0c 4d c2 3f 07 8a 7b dd c5 92 9a 3f
       0.14297628557199085 0.025950519221519055
0000b0 eb a0 85 6a 9f b9 ad 3f 7f 27 53 79 8a 16 c1 bf
       0.05805681395833225 -0.13350039409698053
0000c0 83 b8 b0 8e e6 79 b0 bf 95 42 93 20 e2 f9 aa bf
       -0.06436005576753882 -0.0526877083553973
0000d0 9c 18 16 ae dd 65 ba bf a1 cd 82 fa a3 e2 c3 bf
       -0.10311685085443617 -0.1553540204236983
0000e0 a9 b8 37 27 78 db a1 3f ea d9 d6 36 db f7 b4 bf
       0.03487754324656695 -0.08190698708390412
0000f0 12 e7 7f 12 1e e1 b3 bf 11 53 41 34 b3 d1 be 3f
       -0.0776537699856841 0.12038726831208303
000100 29 36 20 50 47 fb bd bf 83 5b a8 35 99 0c bc 3f
       -0.11711545664021429 0.10956723747254497
000110 f3 8e e0 ed 60 0c c4 bf 74 ea a3 2d dc a1 ad 3f
       -0.1566277657994913 0.057875519343686316
000120 67 c1 61 f8 6f 15 c4 bf 9a 76 53 d6 32 74 90 3f
       -0.15690421703358057 0.016068262416288982
000130 b5 bf f0 15 75 ae b8 bf d1 0d ce 5e fa 74 a3 bf
       -0.09641200814871705 -0.03800184638296467
000140 b2 18 88 99 e0 c8 c6 3f 23 28 f2 0f 86 30 92 bf
       0.17800528999959436 -0.017763228152524967
000150 bb 6e ac 54 ff 74 c1 bf 78 2f 27 d8 f7 bd c2 bf
       -0.13638297686053655 -0.14642236761425997
000160 de b9 de ea 44 5f c1 bf 75 5c 45 c1 e8 ba af 3f
       -0.135719885523442 0.06197287902130536
000170 16 6b a6 88 a7 03 b0 3f f9 b7 17 4f 57 7d a2 bf
       0.0625557621591891 -0.036112526326050394
000180 a1 24 0c 2f 0e be bd bf 29 35 52 1b 1a a2 8e bf
       -0.11618126534098618 -0.014957622488760496
000190 47 ab 98 d0 e3 3b ae 3f 6a 8c a7 e7 83 a4 86 3f
       0.059050673688338544 0.01105597544387234
0001a0 1e 2d 9d b2 2f c3 b7 3f 83 7d ab 00 69 2e b2 3f
       0.09282205687229747 0.07102066294054592
0001b0 5a 1a f3 17 96 b2 c5 3f 6e 93 74 a5 9a 21 93 3f
       0.1695125214520939 0.01868287691935982
0001c0 e3 24 6c 2e d5 1f c5 bf ef 36 57 f3 0b 6c c3 bf
       -0.16503395811768148 -0.15173482305402028
0001d0 c3 02 32 25 76 c6 b9 bf a9 0c cb 1d b5 f4 c6 3f
       -0.10068453224267686 0.17934287981743083
0001e0 ae ab 71 ee 89 a3 a0 bf f3 c3 2f 58 3c fb b0 3f
       -0.032497701985298874 0.06633355286591307
0001f0 eb 72 fb 12 be d5 af 3f 1e 2a 9d 1d a5 b8 a4 bf
       0.062177600686231425 -0.04047122942445845
000200 76 af a8 f1 70 60 95 3f 28 7f 47 4b f7 89 c4 bf
       0.02087570643395461 -0.16046038795229234
000210 4b bb eb cf a8 99 c0 bf e7 de a6 4c 91 5b b5 3f
       -0.1296893134344493 0.08342846032507688
000220 23 6f 22 30 5a 81 bc 3f a1 fd 3b ce f8 1a ae 3f
       0.11134875941428084 0.058799529242601574
000230 94 69 11 df 78 ab bd bf 03 20 9e ad ee af 89 bf
       -0.11589770742413058 -0.01254259555186366
000240 fd 4b 67 65 fc 0b c7 3f 21 52 99 e5 72 ce a9 bf
       0.18005328132002765 -0.05040320446702063
000250 62 d0 98 a1 4f 55 90 3f 5d 95 3f b0 40 7e bc 3f
       0.015950435865491726 0.11130146315516272
000260 55 24 44 76 2a 7e 80 bf c2 eb e5 03 3b 00 72 3f
       -0.00805314229411828 0.004394751098852847
000270 f8 54 56 de dc 9e 94 3f 88 64 a7 88 68 a9 9d 3f
       0.020137263365161723 0.028966554012957363
000280 e0 af e0 67 1f e4 b4 bf 58 09 6d 8a 29 93 b9 3f
       -0.08160587583614598 0.09990176801242023
000290 53 93 a8 3c 50 bd c2 3f 1a 50 85 a3 bd 37 c4 bf
       0.14640238725510332 -0.15795107349788468
0002a0 5a de 17 65 86 ba c3 3f 93 49 ad 1a de 58 bf bf
       0.15412979065125648 -0.12244976187984084
0002b0 af d4 e9 56 e6 38 9e 3f 42 cd 3c 3c f4 93 c3 3f
       0.02951393037297539 0.15295269910130044
0002c0 ce e6 b1 cb 0f 8a b1 bf fe 18 c9 78 00 d6 ac 3f
       -0.06851290438671784 0.05632020449097473
0002d0 77 93 26 d0 da cd c2 bf 24 e1 3b 93 1b bc a2 bf
       -0.14690718806846423 -0.0365913979748618
0002e0 ac 15 46 a0 84 1b 92 3f 76 24 c1 f6 3c 47 b4 3f
       0.017683098108610615 0.07921200775412438
0002f0 83 b3 15 66 df 8d 27 bf a6 6a d2 ec 01 a5 96 bf
       -0.00017970420871496134 -0.02211382873484049
000300 4f 39 d3 5e e9 4d b1 bf d0 83 72 9d 94 74 b3 bf
       -0.06759508671823265 -0.0759976276772385
000310 2d 7c 25 ae 00 cf a5 3f 6c ec e3 c7 70 f4 c2 3f
       0.04259492994128098 0.14808473358411633
000320 1a 38 cb da 1d ba a0 bf 3f 7b 99 d5 ee 08 c8 3f
       -0.03266995712111527 0.18777261190094838
000330 2e 4e db 36 ac 93 b4 bf 44 e6 fc 1d 2d 6c b8 bf
       -0.08037830676340071 -0.09540063840986429
000340 8a dc 07 70 63 80 c3 bf 72 3b 84 fd af 57 b3 3f
       -0.15235560388802966 0.07555675448769053
000350 66 d4 6d a7 f6 ac 91 3f 87 9d ff 6a e0 39 a4 3f
       0.017261365860992937 0.03950406366476061
000360 55 14 60 6f 3f e0 b6 bf 3e e7 96 52 c8 8e ab 3f
       -0.08935924977420602 0.0538237191025943
000370 07 9d 91 a1 8d 45 c3 3f b3 05 f5 6f 5f 9f af 3f
       0.15056009663678813 0.06176279298461953
000380 6e 33 c9 ee e9 ff 9e 3f e1 74 68 c4 b5 b6 c2 bf
       0.030273108672463626 -0.14620086755977638
000390 76 c4 79 31 d0 c3 b0 3f 22 3a 9a 67 22 63 b0 3f
       0.06548787315274915 0.06401267079693487
0003a0 e3 5d cb 3f 00 8b c4 3f 9a e1 24 e2 cf 9a 9a bf
       0.16049197306595805 -0.02598118608259057
0003b0 ed 99 41 8b 84 c8 b4 bf 4c bc ec ea c6 9e b1 bf
       -0.08118465804873383 -0.06882899508922086
0003c0 99 32 9b 12 8c cf 87 3f 05 ac 9b e8 cb 35 b1 bf
       0.011626333539788635 -0.06722711972149405
0003d0 77 9f 46 70 1a 41 96 3f 21 75 38 0e 24 03 9a bf
       0.021732724287772478 -0.025402606361344063
0003e0 d8 be d7 a3 91 92 b7 bf b3 0a 1d 57 8f 71 af bf
       -0.09208021402423172 -0.06141326845547237
0003f0 10 16 2a 96 eb ea ab bf f2 38 b6 ca 42 74 ba 3f
       -0.05452667434751046 0.10333650063532554
