save/model.pth (torch, 400070 bytes, 40 tensors)

weight f8 [1, 30]
000000 55 8a 27 48 06 c7 c3 bf 87 93 45 9d a0 5e ba bf
       -0.15451124690214849 -0.10300639953272937
000010 df 88 3e bf 4a 43 b4 bf 08 65 a0 7a 75 4f 6e bf
       -0.07915179413842875 -0.003699998332206026
000020 78 66 39 04 1e 38 a1 3f 2a 35 cd d2 09 c4 c0 bf
       0.03363126565518554 -0.13098261635824687
000030 c4 90 1b e1 e0 8b c2 bf 83 ee d9 c6 b3 1d 9b 3f
       -0.14489375106416535 0.026480492603225613
000040 e6 1f c4 6a 3e da a7 bf 04 96 4d 93 0b 3d c2 3f
       -0.046586943181011795 0.1424879521611474
000050 0b 25 39 c0 a1 b8 74 bf da 70 d7 20 dc f6 70 bf
       -0.005058891143172826 -0.0041416739236092796
000060 4c 83 6a 3b 51 70 af 3f 8a cd 12 a6 2e c2 c3 3f
       0.06140378809255384 0.15436347111754528
000070 0d 66 74 bd 23 7d c8 3f 49 e1 86 40 73 d0 c0 bf
       0.19131895781247046 -0.13136139536596605
000080 fd 6c 97 35 23 43 c2 bf 4d 4b c4 83 ff e1 b0 bf
       -0.1426738750149993 -0.06594845740282303
000090 6c e4 a4 34 81 69 c0 bf d2 a0 4b 67 5a 9c c8 3f
       -0.1282197482158013 0.19227151912423907
0000a0 b9 00 e3 7c 7e 80 93 bf 02 fe 07 92 c8 65 8b 3f
       -0.019044853565674844 0.013377730328101304
0000b0 57 55 ca 04 06 65 c6 3f 18 8f 59 74 72 c7 94 3f
       0.1749579928770497 0.02029208026068749
0000c0 82 5a 4b 89 24 37 ab bf 2f ad 36 6b 2a ad a4 bf
       -0.05315508056599062 -0.04038364943274996
0000d0 32 1a 2c cf 80 10 c0 3f 5b 9c 3b 34 02 2f b9 3f
       0.12550363651117064 0.0983735444566362
0000e0 dc 54 d3 2a e0 f8 ac 3f c3 65 62 68 ed df a3 bf
       0.05658627054951079 -0.03881780528281411

bias f8 [1]
000000 6b 91 ae 7e 6d 25 d5 3f
       0.3304094063880913

weight f8 [10, 10]
000000 49 04 19 4e b5 3c c9 3f 55 db 85 de cf 87 bf 3f
       0.19716516793599428 0.12316607649505092
000010 e6 d2 8a ca d8 a5 9a 3f 97 a3 46 83 15 49 bf bf
       0.026023280489158383 -0.12220892386416292
000020 85 ca e6 fa e0 d7 c7 3f 63 d2 6e aa 38 e1 d9 bf
       0.18627559901286275 -0.4043714203246848
000030 c6 3d cd 7b 3c 61 c7 bf 17 c4 d8 3c 0c 2d d3 3f
       -0.18265491528516814 0.2996244997221437
000040 da 7c 7d f6 0a a3 c3 3f d7 72 99 a3 d9 31 d1 bf
       0.15341317210820798 -0.26866761185173743
000050 a7 19 0a c4 74 2b b5 3f 8a 2c ee 27 25 ee ca 3f
       0.08269433771247368 0.21039261293148953
000060 04 7f 2b 61 a3 45 d5 bf 51 7f db e0 c8 98 d2 bf
       -0.3323753785061714 -0.29057523688060366
000070 76 cc 70 e0 28 4d c4 bf 1c d5 1d ee 63 ff a1 bf
       -0.15860472640051498 -0.03515159875579796
000080 dd 39 a1 af c8 cf c6 3f 38 0c 3e 92 6d b6 d0 bf
       0.17821606231377887 -0.2611345222614463
000090 d0 d0 f6 72 a8 5e d7 bf 59 70 4a 49 bf 6b d3 bf
       -0.36515246607747276 -0.30345136792471333
0000a0 41 0c d1 c6 c4 db b5 bf f3 d1 cd 11 bf 7b cd 3f
       -0.08538465360565885 0.2303389393743057
0000b0 9c 08 0c 87 60 64 c7 3f 30 ca c8 9a e6 b7 c5 bf
       0.1827507647904597 -0.16967470701054443
0000c0 dd 36 8c 9c eb 7f cf bf 0b 06 08 34 73 d1 cc 3f
       -0.2460913195031286 0.22514190712540513
0000d0 76 e3 25 91 cc 87 bf bf 8b 76 39 23 31 fe a2 3f
       -0.12316587966587442 0.037095580625401935
0000e0 a0 26 43 df 60 eb a0 bf 55 c7 3d bb 40 ce bd bf
       -0.03304579472894642 -0.11642841883965833
0000f0 54 81 cf 68 d0 21 db bf e5 9d d4 29 71 ed b2 3f
       -0.42393884883315036 0.07393557807210234
000100 e4 87 c8 80 4d 97 97 3f a1 1c 4f a3 26 e9 a8 bf
       0.02303811167269733 -0.048653800425705336
000110 81 23 3a ea 71 54 c2 bf d8 7f 79 6a 89 ef a3 bf
       -0.14320205628271412 -0.038936895606411503
000120 74 4c ea ba ae ef cd bf 66 36 d1 a9 91 d6 d1 3f
       -0.23387703062744303 0.27872125228609546
000130 9e e1 15 79 28 69 c2 bf 4e e9 12 c5 df f9 9f 3f
       -0.14383417045952468 0.031226631549295995
000140 72 53 c5 9d 55 11 b4 3f f1 52 ef 18 55 1c b3 bf
       0.07838950254274638 -0.07465106829415526
000150 aa 37 84 60 2d 80 ca bf a6 e0 19 86 d6 2d d6 bf
       -0.20703665936201548 -0.34654772849854465
000160 8b f0 e0 5e 5f e0 b9 bf 9c e9 03 58 8d 84 b4 bf
       -0.10107990328191556 -0.0801475849038184
000170 b7 77 76 f0 da f2 c5 3f 34 d1 0e 78 3b 71 c3 bf
       0.1714738535055724 -0.1518930755825153
000180 32 9f db ea 5a ab ba bf f3 83 bf 86 52 00 c2 3f
       -0.10417717202983282 0.1406348379087202
000190 6c f5 c7 15 92 bd b5 3f b9 8a a0 84 10 45 ca 3f
       0.08492386848225458 0.20523268199857173
0001a0 97 60 b2 57 96 34 d2 3f 3c 7d ba 93 24 e0 d4 3f
       0.2844596725858621 0.32618059565170987
0001b0 6e 34 e1 b5 b7 5a 96 3f 89 3e 54 8a 86 09 c2 3f
       0.021830435253196993 0.1409156966624219
0001c0 11 7c e5 09 6e d5 b0 3f 03 32 ff d2 af dc c4 3f
       0.06575668088542864 0.16298482706623937
0001d0 7a 69 5d 58 ea 84 d7 3f 22 15 57 2f 35 a9 c3 bf
       0.3674875128687273 -0.15360131083995393
0001e0 01 35 ff 1b 59 e1 d3 bf ed aa 4c b6 99 92 d0 bf
       -0.3106291554839374 -0.2589477806347265
0001f0 cf b3 2c ba 2a 2a a1 3f b2 51 e1 3b 42 85 db bf
       0.03352483294143093 -0.4300084671752088
000200 fa 2b e4 c3 b0 2d b3 3f 53 c0 69 8c e1 46 b6 3f
       0.07491593153478951 0.08701905897191979
000210 14 37 cf fa b0 b6 d3 bf c1 1b c9 00 0a 94 c3 bf
       -0.30802559369190985 -0.15295529402120958
000220 7b eb e6 35 48 c7 ce bf d8 cc db e3 47 9b db bf
       -0.24045660621581164 -0.431352589147719
000230 4c c7 e0 65 55 6f d2 3f 0d ef c8 08 60 44 bb bf
       0.2880452628042931 -0.1065120717475418
000240 9e 14 c0 34 db b2 d2 3f 2a 1f d5 41 40 ec c7 bf
       0.29216652060888204 -0.1868973084876811
000250 47 d2 46 4e 99 44 be bf a3 28 5b 54 e1 eb c3 3f
       -0.11823423539210252 0.15563599223088884
000260 8b d9 c0 59 0f ba cf bf de 08 93 ce 53 7c be bf
       -0.24786559946523953 -0.11908458512610617
000270 c8 94 ba 3e 5a e4 cb 3f f2 03 51 dc 19 63 b0 3f
       0.21790626585894857 0.06401216152973158
000280 4a 9e 3d a4 78 31 c4 bf 99 17 bb a6 27 be 95 bf
       -0.15775974292340528 -0.021233195830766858
000290 6d 46 b7 0c d5 5c c9 3f b6 7c 6f 70 59 6f cc bf
       0.19814551468748523 -0.22214811315550315
0002a0 03 23 72 05 df e6 8b bf 29 25 d9 f5 4a 6a d2 bf
       -0.013623945573514989 -0.2877375985013538
0002b0 5a 6f 2f 86 f3 b5 81 3f 7c e2 10 61 36 e6 cd 3f
       0.008647825748930128 0.2335880254702437
0002c0 33 a2 7d 4a 7c d0 cc bf ee ba bc 27 59 6a a5 bf
       -0.22511247288936573 -0.04182699785302711
0002d0 5c 88 73 f4 06 13 c2 3f 9b 85 14 d1 57 6c ae bf
       0.14120566307161908 -0.05942034175155727
0002e0 0c e2 87 a9 7e dd d8 bf 74 1b f9 3c d4 db a5 3f
       -0.38851896816007137 0.04269278759289011
0002f0 9d c8 fc 15 03 e3 b7 3f 68 e9 d4 bb 97 1e a1 3f
       0.09330767905047073 0.033436528853104275
000300 d4 0a ec e0 aa b5 ae bf 84 9a b5 51 82 7f cf bf
       -0.05997976298933386 -0.24607876767841586
000310 9a ce 61 d2 12 55 c9 bf c6 8a 8f ab c6 fa a7 3f
       -0.1979087378746172 0.04683514446494068

bias f8 [10]
000000 01 9f ea c8 b8 16 b4 bf 03 d3 ce 55 d7 69 b8 3f
       -0.07847170739352906 0.09536500782889949
000010 7d f4 f2 e3 61 f7 af bf 1f 6a 31 6f f8 85 bf 3f
       -0.06243425281125157 0.1231379767863605
000020 ae 74 67 e8 e9 5e c7 3f ea c4 19 d9 46 da 77 3f
       0.18258403632981896 0.005823399305527869
000030 a0 2e d6 a2 f3 b3 d7 bf 93 8a db 94 6b a2 b8 3f
       -0.3703583803369188 0.09622833618372288
000040 75 99 ee b1 4e 70 da bf 77 d7 9f 82 45 17 c4 bf
       -0.41310469986128534 -0.15696019056457164

weight_ih_l0 f8 [128, 10]
000000 68 d9 52 e7 bd 16 b2 bf fe d6 d0 d6 1a a1 ac 3f
       -0.07065951249646718 0.05591663238776155
000010 d5 5a 99 b8 37 35 96 3f fb a2 38 ef 62 c5 cc bf
       0.021687384264022242 -0.2247737567970701
000020 19 9a 6d f3 83 db b6 3f 4a c8 49 7a 1a a6 a0 3f
       0.08928703969068187 0.032517268588791184
000030 ab 7c a0 e8 f0 80 b4 3f 83 69 5d aa e6 1f a4 3f
       0.08009248427741748 0.03930588559770156
000040 19 7d 74 6c 5d 87 c1 bf 59 97 af 1e 1e 85 b8 bf
       -0.1369435100141139 -0.09578121422927434
000050 0e c9 c3 1a 27 b9 b9 3f 90 bb 34 19 75 ec 25 3f
       0.10048145678937123 0.00016726426529475565
000060 fd 45 8a 0b 52 b0 c1 bf b6 6a 94 6f 9a 86 b2 bf
       -0.13819337428553516 -0.07236638282885619
000070 0e 30 dc c1 c3 51 c8 3f 72 a8 4a f2 e6 a9 bc 3f
       0.18999525991273497 0.11196750083277765
000080 ea 2e 9b 37 a0 93 c6 3f e8 24 36 9e 14 20 a3 3f
       0.17638018336435063 0.03735413008969052
000090 b0 5a dc ff f2 37 c3 bf 9b 89 b9 eb 57 7a bf bf
       -0.1501449345893966 -0.12296056275366711
0000a0 f6 fc 0c 1e 3e 3f bc bf 50 04 c5 92 ea 43 cb bf
       -0.11034000619564552 -0.21301014105304938
0000b0 94 91 03 10 9e bb ba bf d9 6f 0e 35 7e 2c 93 3f
       -0.10442531481709799 0.018724414814286525
0000c0 85 1b 3d 40 1c 11 d3 bf f2 36 48 a5 de 17 c0 3f
       -0.2979193332034174 0.12572844572462533
0000d0 ed 9a b9 c0 dd 8a 80 bf 68 43 7e 32 aa bf af 3f
       -0.008077366298676359 0.06200916162845865
0000e0 da 81 3b d5 c8 43 ba 3f 3b 82 6a 23 45 3e c9 bf
       0.10259680944319119 -0.19721283177661228
0000f0 51 82 d6 12 05 46 b6 3f 6b 49 0f a9 68 58 c0 bf
       0.0870059176436453 -0.12769802336567734
000100 b6 0d ae 48 52 c9 61 bf 43 61 31 38 20 03 c4 3f
       -0.002171192847016913 0.15634539359849428
000110 76 32 cc af 83 96 b5 bf 8c 24 56 cd 84 ea cc 3f
       -0.08432791749891941 0.22590694452472737
000120 49 ad 1f ef f6 21 d1 3f 3c 88 29 01 50 41 bc 3f
       0.2676980338280442 0.11037158993124846
000130 2b f1 17 79 82 f7 c4 bf a2 17 14 4a d4 97 bc 3f
       -0.16380339539308272 0.11169173058087137
000140 c0 02 ab 35 f4 e1 96 bf 91 63 b5 7a c5 86 b0 bf
       -0.022346320891986293 -0.06455644841970655
000150 62 0b 05 09 36 0a b6 bf 72 5a 55 cf 57 51 4a bf
       -0.08609330864150658 -0.0008031538733728873
000160 d1 d3 1c e4 bd f6 c5 bf db a5 23 91 0b 29 c1 3f
       -0.17159246099768535 0.13406509959103982
000170 75 8a bd f1 b9 50 cc 3f 6d 8b 89 79 88 3a c5 3f
       0.22121357253770993 0.1658487885898369
000180 b9 5a 4e 2d f0 36 c0 bf 97 c1 b5 da 83 33 9c 3f
       -0.1266765805455259 0.027540264343259926
000190 02 d8 5e 79 2b 1e 85 bf a0 12 f3 dd 20 00 aa bf
       -0.010311450616296017 -0.05078222951263922
0001a0 29 46 45 b1 ff 09 b2 bf 59 dc 6a a8 dc 82 c0 bf
       -0.07046506956000854 -0.12899358962542598
0001b0 f0 a6 87 4a 44 67 9a bf 83 34 36 c5 9f 88 a6 3f
       -0.02578455643553118 0.04401110918397768
0001c0 65 92 62 9e 37 37 b3 bf 97 7b 83 70 ef 1f b9 bf
       -0.07506129853079242 -0.09814354416765379
0001d0 fb 44 ad f7 eb 23 c2 3f b4 52 9f dc 74 dd a9 bf
       0.1417212447509327 -0.050517703944625764
0001e0 1e 36 88 1f 66 bf 82 bf 1e ed 86 9e 7b ea bd 3f
       -0.00915412696579226 0.11685917492188877
0001f0 71 7f 08 13 13 f9 b7 3f 40 01 17 59 70 49 cc bf
       0.09364432539632418 -0.2209911761292549
000200 e5 90 0e ce ce 90 a1 bf 03 e9 77 74 0d fa b6 3f
       -0.03430792107909201 0.08975299924341944
000210 d6 a4 e6 e9 eb 8c ac 3f 9b a5 f7 f8 f8 96 b4 bf
       0.05576264600979079 -0.08042865827851246
000220 19 ab 41 32 82 c6 cd bf 2d ab 79 2e 1c 36 c2 3f
       -0.232620501078906 0.14227630872059063
000230 fd c5 fc ac 56 b9 a4 bf 14 43 3e 7c 6c 8d d1 3f
       -0.040476521126389976 0.27425682194830014
000240 b1 79 72 b8 ea b7 ba 3f 91 6f 56 fa 28 38 74 3f
       0.1043688488302681 0.004936370916222802
000250 b4 e2 be 6d a0 4f d4 3f 84 5a c8 cb b8 85 d2 bf
       0.3173600265250045 -0.2894117345871694
000260 4d 8c a6 08 a3 3a be bf 44 aa ce f1 01 c1 ab bf
       -0.1180822273368431 -0.054206906096926605
000270 3e e3 e0 a9 c9 ca 8d 3f e0 98 f4 5a c4 58 3e 3f
       0.014546943184642221 0.0004630545981448974
000280 9e a0 2f 31 1e bd c0 bf 51 f9 4e 39 2d 1f c2 3f
       -0.13077142144834836 0.14157643602625083
000290 02 10 7b f7 17 62 b6 bf 18 8e 81 38 4d 84 b7 3f
       -0.08743428985604854 0.09186251287024338
0002a0 02 c3 37 80 86 01 ae 3f a2 28 83 52 04 02 93 bf
       0.0586053878322499 -0.01856238130202626
0002b0 41 78 83 e3 ab 76 6a bf 4f 64 42 1a f2 8a a6 bf
       -0.0032304150773674605 -0.0440288216643202
0002c0 09 7e fd 86 5d 06 78 3f 72 5e 1e 25 2e 92 b6 bf
       0.0058654454622622055 -0.08816803365913886
0002d0 9f 5e c5 ae bc 3d d0 bf e3 e0 a8 14 4e 3b c1 bf
       -0.25376812999227555 -0.13462234505437384
0002e0 c5 3d a0 cd 1c 4a b8 3f 86 33 95 33 62 a8 c0 3f
       0.09488086719669926 0.13013865965549715
0002f0 20 93 a6 86 7c 33 bb 3f 67 df fe 3b 1b a6 9d 3f
       0.10625437056894471 0.028953958069649312
000300 61 fd 5e 15 46 5d c6 bf b9 45 0f cf 9f 76 a8 3f
       -0.17472148936756596 0.047780031228863824
000310 eb 83 e0 39 7b 63 ab 3f 93 85 eb 26 5a 8d c4 3f
       0.05349335748201852 0.1605637254752251
000320 16 b6 65 b1 40 8e c9 3f e2 5e 0b 92 0e e1 ca bf
       0.19965370809534083 -0.20999319201540972
000330 11 55 48 2e cf ac 95 bf 37 e4 7f 91 56 15 98 3f
       -0.021167027664053487 0.02351889861163078
000340 09 f5 16 fd 08 e3 c9 bf 31 d0 13 29 bd 5b c4 bf
       -0.20224106176275594 -0.15904964929325296
000350 1b 90 76 f2 5b 9a 8a 3f e3 8b ef 4b 06 38 b0 bf
       0.012989729248893458 -0.06335486749553314
000360 18 4a be 28 ea 7b bf 3f fc 8c 73 55 68 11 b2 3f
       0.12298453802785791 0.07057811819281662
000370 dd 7e 2b a6 5e bc d1 bf 10 47 94 ab c2 5b c3 bf
       -0.27712217547921886 -0.15123780610934334
000380 a3 73 cf bc c8 fb a0 bf 94 b7 a9 dc ed 1f c1 3f
       -0.033170960472239906 0.13378690027769535
000390 c0 23 ab 5d 81 b7 ac bf 4d a7 b0 09 25 4d ba bf
       -0.056087534603256994 -0.10273963438581042
0003a0 81 93 f4 4f 6f 0d a2 bf 3f 8b 72 71 52 c2 96 3f
       -0.03525874949472208 0.022225654768259103
0003b0 40 75 dc 91 b5 66 aa 3f b2 52 58 43 f6 fb 7d 3f
       0.05156485944301403 0.007320367779830294
0003c0 b0 86 e5 86 ac f7 b8 bf 3e 0c 4f cd db 7d a2 3f
       -0.09752920430539791 0.03611647492609692
0003d0 ee 31 ab 01 ec 0a b4 bf 44 8d 6d 53 e1 11 a6 bf
       -0.07829165497532362 -0.04310516494185859
0003e0 4e 96 de 2c 35 f6 a4 3f 63 42 47 33 9f f2 c5 3f
       0.040940915801269115 0.17146673206163418
0003f0 11 d6 99 cd 1f 3e c0 3f 44 05 bb e7 21 c4 ab 3f
       0.12689588107211638 0.054230746781750244
000400 ec f4 15 84 42 e4 9c 3f 82 85 32 8a 7a 55 c0 3f
       0.028214492141604916 0.12760860202710594
000410 3c 9b 95 ba 78 e6 2c 3f 38 64 1d b5 3d 61 b8 bf
       0.00022049163571155074 -0.0952337805914717
000420 c9 8e 0d 71 7e 18 c7 bf 0b 6c 13 58 c7 9d b1 3f
       -0.18043499488987028 0.06881376171388369
000430 19 51 59 52 20 90 b4 3f 51 a2 5d d2 fa 26 c7 bf
       0.08032419214697874 -0.18087706825032737
000440 db eb ad 85 71 19 c4 3f e4 8c 03 2c 9c 57 c1 bf
       0.15702647235215647 -0.13548614644159962
000450 bf 05 e2 cc cf 3e a5 3f 55 03 69 2d 61 21 c5 bf
       0.041494840393180514 -0.16508116452498692
000460 93 89 66 dd 32 f7 ab 3f 30 40 cb d0 8c 3f b1 bf
       0.05462035133975287 -0.0673759469748354
000470 4f a6 4f a5 2c c3 b6 3f f1 07 24 2a ca ae bd bf
       0.08891562496105475 -0.11594832924677669
000480 eb 5b e8 ff 2b 4b 7c bf 02 77 20 71 8e 4a b8 3f
       -0.006907626985159769 0.09488764058957247
000490 4d b9 e9 5b c2 54 89 3f 7b 8b e5 89 17 52 c4 bf
       0.012368696622811948 -0.15875524743304567
0004a0 80 79 42 1a cc aa b2 3f 82 a2 15 c7 e3 d9 b8 3f
       0.07291865960221422 0.09707473383390133
0004b0 3e 0b 9b bc de d2 b2 bf 7b f1 fd 44 b2 a9 af bf
       -0.07353012184743776 -0.06184155552088818
0004c0 57 58 f7 5f 5a 2d c0 bf 0e fd f4 c1 5c a7 c0 bf
       -0.12638406453942494 -0.1301074931197736
0004d0 86 68 2b 96 fb 35 9a bf 60 76 91 5a 9f 99 88 3f
       -0.02559655288755682 0.012011761619017125
0004e0 36 47 4c 09 48 e3 c0 3f 98 cd c9 65 ae 92 c9 bf
       0.13193607763292342 -0.19978885622149956
0004f0 75 cd a2 55 36 c0 cb 3f cb b5 50 9b bb 89 c0 3f
       0.2168033521789813 0.1292032726645814
000500 75 73 73 9b d3 39 c5 bf 24 a1 66 bf e1 dd 9f 3f
       -0.1658272275007239 0.03111984949797021
000510 0b 79 c3 1f 03 8b b9 bf 6e 48 65 77 77 37 b4 3f
       -0.09977740788915328 0.07897135415012865
000520 30 0f 7c e1 60 e2 92 bf bc bf fa 30 bd e3 a8 bf
       -0.01844169021843739 -0.0486125108994879
000530 8b 2a 47 e2 ae 0c 87 bf 2f 64 47 7e 9b 70 a7 3f
       -0.011254659920173956 0.04578100124826567
000540 05 6d ff b8 a9 06 bf bf a8 03 6d 07 76 27 c6 3f
       -0.12119541899248894 0.17307925570096683
000550 ed e9 31 9a c0 94 9a bf 9c 4c 77 5a a1 79 bd bf
       -0.025958070193590577 -0.11513718088763131
000560 d3 b7 46 fc 27 cd b3 bf b9 a1 0f cd 38 54 c6 bf
       -0.07734918507659864 -0.1744452477717127
000570 f7 37 fd 65 f2 f3 a3 3f 98 76 8f d0 05 da ac bf
       0.03897054190620957 -0.056350881299050914
000580 ab 37 df 82 cd ba c3 bf e1 2e bd 1f fe ca c0 bf
       -0.15413826837760544 -0.1311948447204179
000590 ff f7 0a 3d 7c 71 c0 3f d3 20 7a 4d ad fd c1 bf
       0.12846329670531983 -0.14055410655078635
0005a0 16 cb 08 51 24 9b b5 bf 37 39 26 96 ff 8e c7 bf
       -0.08439852693917901 -0.18405146438130668
0005b0 90 54 76 0f f6 32 c9 3f b1 08 9c 1e 76 7c b9 bf
       0.1968677115916404 -0.09955538031866486
0005c0 d4 3a 1e bf 36 db 43 3f 3b 03 07 f2 eb 44 c9 bf
       0.0006059663121379074 -0.19741582219833184
0005d0 53 62 be 71 5f 2d c5 bf 9d 13 9a e8 d8 51 a9 bf
       -0.1654471688641644 -0.04945257033708759
0005e0 17 c7 87 c6 52 e3 c8 bf 3c 38 da d9 69 c4 b3 bf
       -0.19443735784403124 -0.07721578186667072
0005f0 10 d2 8a ea de 72 b0 3f c7 ea be e5 7c d2 b9 bf
       0.06425278879289231 -0.10086804017093264
000600 da 9a 00 ac 8b a3 b7 3f 0e cc 95 e1 06 36 c1 3f
       0.09233925771023213 0.13446126952075627
000610 6d 9f f9 f1 19 8b c4 bf a9 d3 15 55 f2 40 c1 bf
       -0.16049503627004516 -0.13479451326898342
000620 f4 cc 40 31 a0 88 c6 bf e9 94 db 17 cd eb bb 3f
       -0.1760444870466028 0.10906678993667963
000630 0b dd 8b ee d0 b3 c6 bf 86 51 c0 02 7a b8 b4 3f
       -0.17736255309839807 0.0809398895947365
000640 20 d3 6c fe ba b2 c4 3f 6e 31 8d b6 e5 be b9 3f
       0.1617044203100244 0.10056911188912007
000650 d9 56 63 15 67 39 af 3f 73 3b 51 e4 d4 42 bd 3f
       0.0609848226173832 0.11430101942208441
000660 89 80 9f 43 84 f2 b2 bf 73 14 08 65 61 0d bd 3f
       -0.07401301051095478 0.11348541943159933
000670 87 61 d6 e5 6c dd c5 3f 7e 5d bf 29 7b d6 b9 3f
       0.17081986639528798 0.1009289719507844
000680 21 ca 85 17 bf 0e a0 3f 62 2c ef dd ff d2 b8 bf
       0.0313625065054064 -0.09696959656064189
000690 15 fc d4 fe dc e7 af bf b6 4c a1 4f b8 28 ab 3f
       -0.06231585131399001 0.05304504367873035
0006a0 be 3f 0d 2c 61 48 7f 3f 60 c2 0c cd 59 97 c2 bf
       0.007637385919977589 -0.1452438594074179
0006b0 db 7d 82 57 2d be cd bf 8b 01 f4 31 25 cb c4 bf
       -0.23236624501167466 -0.16244950236433583
0006c0 6e c6 1f 70 71 d2 69 bf a3 f1 28 55 bd 0d d0 bf
       -0.0031521049104348752 -0.25083859745407205
0006d0 a3 f3 b2 b4 36 f3 ba bf 7a 54 ed e2 e0 89 bd bf
       -0.10527364646527686 -0.11538510837756802
0006e0 c6 a7 46 ff 7b 11 c8 bf e4 91 34 b8 a8 4d b3 3f
       -0.18803358044288937 0.07540373322678523
0006f0 f5 bf 18 0a e4 86 bd bf 40 eb 15 5a dc 11 b0 bf
       -0.11533951994420007 -0.06277253341060618
000700 f7 e5 4f f7 97 c7 ac 3f 97 58 3e 3f 8c f5 93 3f
       0.056210278453317324 0.019491378173903753
000710 cb 95 ff f9 4d 5c ad 3f 76 5e 8c 44 b1 a6 c1 3f
       0.05734485317934065 0.13789954993329773
000720 9c 8a c1 46 e4 2b c4 bf eb 98 c4 5a 1b e5 c6 3f
       -0.15758946852573252 0.1788667863085672
000730 b9 1e 85 27 24 a6 c2 bf 38 e9 5e 1b b4 5f c0 bf
       -0.14569522790610792 -0.12792064033949102
000740 27 70 57 e3 d3 8e a3 3f e5 38 6b 9d 09 2f a5 bf
       0.0381990637795016 -0.0413744930898348
000750 44 b0 e8 b3 bd 94 b5 bf d2 26 7c 2c de b4 67 bf
       -0.08430085794742675 -0.0028938617068704287
000760 05 7c 83 21 e8 f5 be bf 23 e2 2e 0e 45 3c c6 bf
       -0.12093973940089604 -0.17371428673301734
000770 4e db c3 2b 26 7e ca bf b2 79 cd cf 3f 30 ba bf
       -0.20697476517644947 -0.10229872535044285
000780 70 2e 91 e1 d4 26 ca bf c2 af fd b4 af a3 a9 3f
       -0.20431004537600783 0.050076952785132814
000790 72 5a ae 23 a8 66 b8 3f d0 77 96 47 6e ff b5 3f
       0.0953164183723432 0.08592881438968836
0007a0 78 07 bf c2 07 1d bd 3f 9d 61 e3 25 7f 37 8d 3f
       0.11372421745821082 0.014266007751232485
0007b0 8f 64 5a 60 33 a9 c1 3f f3 3a 9d e3 a9 58 c3 bf
       0.13797609524479923 -0.1511432992360465
0007c0 e8 2c c6 81 f0 4b c6 bf 63 33 9d 48 c8 57 bb bf
       -0.17419248901965223 -0.10680820248417215
0007d0 7e 27 77 40 0a 58 bd bf 97 98 e2 c8 55 32 c0 bf
       -0.11462463449347912 -0.1265361052402951
0007e0 f0 e4 03 17 d9 30 bd bf 42 bc 5c 0a 3f bf af 3f
       -0.1140266114415629 0.06200596810810356
0007f0 2b 06 d2 68 8e cf 9d bf 50 2a 56 df 17 ea d0 bf
       -0.029112076900224586 -0.26428791818822095

weight_hh_l0 f8 [128, 32]
000000 4e 4d ff ab c9 aa c1 3f 42 64 26 83 47 4a cb bf
       0.13802452944092142 -0.21320432571227071
000010 5f 53 06 f1 d5 bd c7 3f 52 6e 52 01 e7 fd b1 3f
       0.18548082608017588 0.07028049261355676
000020 a0 8b 9f 2f 42 9e c2 bf 2c 58 60 e0 73 4e be bf
       -0.14545466733315227 -0.11838459232271309
000030 33 69 0f 74 48 eb b4 3f 03 5f 55 77 0c e3 a7 3f
       0.08171513398648216 0.046654119078708
000040 b3 9d a8 91 67 9d b8 3f 4c f1 ea d7 56 46 b6 bf
       0.09615180307502307 -0.08701079150609309
000050 af fc 35 27 0b 65 ba bf 95 5a 2c 92 5a 69 a9 bf
       -0.10310430247590106 -0.04963191065160292
000060 67 66 c2 63 a6 90 c8 bf 67 e0 95 f8 bf 9e c5 bf
       -0.19191436644614443 -0.16890716207467735
000070 98 c6 00 4d 81 78 b2 3f df 58 55 15 82 42 c0 bf
       0.07215126161534113 -0.1270296672980242
000080 7a f7 99 25 e1 44 ba 3f 69 ca ea ce 85 ac a3 3f
       0.10261351745609018 0.03842561865657929
000090 5e 8f f0 e5 4b a1 be bf 42 df 63 89 4f 8a a5 3f
       -0.11964868892442612 0.04207085182309679
0000a0 98 cb f7 45 0a eb a1 bf 8b 91 05 7f ba e6 bb bf
       -0.034996338883409084 -0.10898938752285951
0000b0 f7 e4 d9 a7 d1 f8 af bf dc fe 57 35 d2 4f c7 3f
       -0.06244521306957467 0.18212344746279185
0000c0 41 ba ee 3e 98 55 c3 bf 85 be b5 b7 55 bc ad 3f
       -0.15104964325787942 0.05807750575592955
0000d0 de e9 d7 31 57 e6 b4 bf 44 70 51 69 d3 c6 a5 bf
       -0.08163971869354422 -0.042532545667854055
0000e0 3e 96 06 63 41 c3 b1 3f 8d 58 b9 65 51 aa c3 3f
       0.06938561122532236 0.15363519160263586
0000f0 4a a8 b4 7d 91 ff 88 bf 2e 2f 06 5f f4 28 bf bf
       -0.012206207894070915 -0.12171866722036093
000100 72 86 4d 44 54 97 a7 3f 25 ae f7 64 98 54 ba 3f
       0.04607642492079557 0.1028533216955841
000110 c4 44 ca 44 af b0 c6 bf 56 29 9e 5a 7f 81 a1 3f
       -0.1772669874085634 0.03419111233877696
000120 a2 f4 f1 df fd 88 b2 3f 01 b8 4a 72 8e b4 be bf
       0.07240282742891904 -0.1199425725014578
000130 a7 cd df 25 31 8c ac 3f 4d ab d2 7a 09 3b c2 3f
       0.055757079957312876 0.14242666718686295
000140 69 62 72 38 ba b6 bf 3f 09 4c f1 3d 01 5d b0 3f
       0.12388194921585129 0.06391914140958489
000150 22 45 7c d2 4f d5 c8 bf cf b1 92 04 0d a6 c2 bf
       -0.19400975968941575 -0.14569246981899517
000160 65 2c fe 56 12 48 c4 3f 0f 2b b2 b9 34 c1 93 3f
       0.15844945190142137 0.019291709741575732
000170 29 b3 58 92 a9 33 71 3f ca 0e c7 77 f2 ed c0 bf
       0.0041996597188187846 -0.13226157043947345
000180 1c 10 89 24 a1 2a ae bf 96 c2 d0 5c 12 e7 c9 bf
       -0.05891898699749751 -0.20236424953465776
000190 58 ab b4 c2 06 6e c1 3f 9e c2 e9 21 dc d1 8d 3f
       0.1361702395164126 0.014560432228991001
0001a0 b9 0d db b9 37 92 c4 3f 44 0c 80 1f b1 9c b2 bf
       0.16071220946296963 -0.0727034284500841
0001b0 28 44 4d 06 9b 16 c4 3f 64 19 e0 46 64 ed a2 3f
       0.15693986709314456 0.03696740498712606
0001c0 a1 c4 68 58 aa fa c2 3f 98 18 df ac c4 79 9f 3f
       0.14827470127923895 0.03073794655917847
0001d0 65 9d 2f 97 4b 46 b3 3f a9 59 1d 14 f7 e2 ca 3f
       0.07529137078346577 0.21005142671738256
0001e0 59 a3 2b f0 8d 7f ab bf 4c 7c 99 4c 04 1a 83 bf
       -0.05370753819244695 -0.009326966846115912
0001f0 f7 e7 be 17 e1 87 bc bf 8b 9c ea 1d 00 36 c1 3f
       -0.11144835309724486 0.13446046314968316
000200 73 fd 14 cf 88 90 af bf 19 52 51 0e df 34 c0 3f
       -0.06164958503586151 0.12661350440124933
000210 3f a8 95 2f d4 42 c8 bf c2 52 bf 83 83 bc c0 3f
       -0.18953945468394015 0.1307529824540748
000220 c5 67 4c 29 9a 2f a3 bf c3 dc c7 ee b7 8e c4 bf
       -0.03747255090838978 -0.16060542258467167
000230 06 49 a5 59 76 b7 9f bf ef 16 83 c4 e9 d6 c1 3f
       -0.030973290654693585 0.1393711289912782
000240 13 57 d9 ca 73 ff b4 bf 4c 5c fa 2f 32 51 ce bf
       -0.08202289297454639 -0.2368529066340862
000250 22 0d ec 32 d7 b8 cc bf ac bb 54 b2 96 9b c1 3f
       -0.2243908880846926 0.13756068904464536
000260 54 4a e2 ad 93 ec c7 3f 7c e2 f3 9b 64 5b b0 bf
       0.1869072531740864 -0.06389454657972665
000270 a0 51 2c cc 27 6d cd bf 9b 97 6c 68 f6 ba c8 bf
       -0.2298936602534356 -0.19320564364278145
000280 e1 a7 7e ed 52 6b 91 3f 16 db c8 7e b6 5b b6 3f
       0.017010970826653597 0.08733692736937501
000290 42 c3 53 11 53 8f b5 3f 51 1d 54 3d 8c cc c0 bf
       0.08421820805575655 -0.13124230379637905
0002a0 f6 73 fa 99 85 20 94 bf 4c 7e f5 5f f1 c0 cc bf
       -0.019655311129657314 -0.22463814912315383
0002b0 36 19 8e e7 78 af d1 3f 18 f6 2e 35 e2 a2 b2 3f
       0.2763349782257082 0.07279790686057941
0002c0 cf 47 f4 2d 76 00 83 bf 9b c8 37 d8 4d 8d 9b bf
       -0.009278224255954285 -0.026906219789403534
0002d0 4b 3e 19 3c 79 ff 91 3f 99 7a c8 10 f4 ac ca 3f
       0.017576116841438155 0.20840311831939998
0002e0 67 a0 12 96 37 31 a9 bf d2 ea 24 72 2f b6 bd bf
       -0.04920362193053123 -0.11606117760394888
0002f0 fa cf 29 2a 76 ef c3 bf 89 86 33 c2 37 24 c0 3f
       -0.1557452875018724 0.12610527975543942
000300 a6 33 2c 75 f6 34 cc bf e1 70 7c 9a 69 73 bb 3f
       -0.22036629411050263 0.10722980519898641
000310 fd 7e 69 68 bb b2 ce bf 15 cc f7 80 44 fa a4 3f
       -0.23982946966406607 0.040971890204581175
000320 52 b5 94 63 79 b3 cf bf 97 d8 f2 e2 f8 e4 ca bf
       -0.24766461717937688 -0.21011267739749392
000330 a0 3e e5 28 3f ef cf bf f3 ba 98 fc 13 9f 82 3f
       -0.24948873040056174 0.009092479845177226
000340 39 1d c9 95 c9 b0 8c 3f ff be 3c b6 9d 95 b3 3f
       0.014009070285409752 0.07650170992996762
000350 71 07 19 de 24 52 92 bf 73 67 ed 03 7c 7e c3 3f
       -0.017891479545375902 0.1522974986244737
000360 1b 5a 83 62 c2 ef a6 bf dd da 38 e8 3b 1b ce 3f
       -0.044797968411945464 0.23520611609429568
000370 99 cb 25 73 74 81 a9 bf 02 38 3f 1f 39 55 c5 bf
       -0.04981578736887755 -0.1666633036206236
000380 d8 10 5b 68 b0 11 c2 3f 99 97 c5 7b 08 9a 7e 3f
       0.14116482825750754 0.007471116198166338
000390 54 bf 2e bc 41 a3 b5 3f 0e a2 58 7b 53 49 b8 3f
       0.0845223507337754 0.0948688675058593
0003a0 4b b0 81 7d ae 58 c2 3f 57 52 e8 4f 33 99 d4 bf
       0.14333134773494502 -0.3218506126734488
0003b0 5f f8 e6 7c 7d 1b ca 3f e9 71 b5 0f 64 1a b1 bf
       0.20396393393270082 -0.06680894263758543
0003c0 d9 f0 e8 62 70 ee aa bf f2 01 09 8b 17 fd b4 bf
       -0.05260039527317568 -0.08198687691129417
0003d0 d4 6f ea f0 31 44 a0 bf 6b 12 c4 2f 12 b8 c6 3f
       -0.03177028718820876 0.1774924023849452
0003e0 63 00 b9 b7 b1 69 bc bf 79 e3 2e fb bc 51 bb bf
       -0.11098776564995343 -0.10671597607041673
0003f0 2f da 1d 60 f7 01 b8 bf 7e 55 25 57 d5 1d ac 3f
       -0.0937800035152143 0.054915110481185345
000400 ac e0 69 a3 79 f6 c4 3f 0d 25 e2 75 2a 1f c0 bf
       0.16377182463816575 -0.12595110660576161
000410 98 02 2d dd 2c 6f ce bf ae d9 bc 1a 4f 72 ac bf
       -0.23776779937363268 -0.055559608472708674
000420 5e d1 a7 c8 6a cf c9 bf 4b 1c 50 49 11 8d c3 bf
       -0.20164236829408372 -0.15274253921254152
000430 0c 37 8e ac 07 63 cd bf 43 83 39 cb 3b 0f a6 bf
       -0.2295846550518309 -0.04308497291345372
000440 1d e2 c5 0f 1d 75 c8 bf f4 0c 99 fa 3b f6 b1 bf
       -0.19107402105488883 -0.07016348713027637
000450 59 e2 4e a7 df 16 d6 bf f1 af 02 fa 8f 23 bf bf
       -0.34514609659848855 -0.12163638929149535
000460 58 90 66 00 52 1a b5 3f ee a5 f7 5f 98 b8 b2 3f
       0.08243286618977785 0.0731291994376517
000470 f8 16 04 ff 43 5c 99 3f 64 db 47 7b 4c de c7 bf
       0.024766027870120916 -0.1864715196568013
000480 ea e4 a1 e5 94 cf bf bf 54 bd 36 46 47 7f cd bf
       -0.12426119428882357 -0.2304467289772939
000490 12 8a c2 41 0c db 88 bf b3 e9 89 43 3a e7 b3 bf
       -0.012136550671418642 -0.07774700306791864
0004a0 47 75 4f 79 4c f3 d0 3f 61 5e db 58 81 f7 d1 bf
       0.2648497757598602 -0.28073152234489923
0004b0 50 32 b7 e9 b8 cd 95 bf 9d 22 b6 63 cd 62 ca bf
       -0.021292580857151855 -0.20614020699237737
0004c0 32 fc d7 89 53 e3 be 3f c9 2d dc 58 81 1c c7 bf
       0.12065622439693938 -0.18055741156454833
0004d0 b7 11 ab 31 63 7d a7 3f cd e6 dc 2c b5 aa d9 3f
       0.045878505528466666 0.4010441721071459
0004e0 42 36 f3 a8 d4 c7 cf bf e6 ca e5 c0 aa b0 bc bf
       -0.24828584908975598 -0.11207072457709052
0004f0 f6 c0 a4 cc a3 af d0 bf 98 1c 0c 29 b4 00 d3 3f
       -0.26072020516131944 0.29691795357252593
000500 6b 08 69 63 16 f0 a9 bf 0c 4d f2 8f 1e f6 c3 3f
       -0.050659846911472815 0.1559484675277435
000510 1e f0 58 f8 51 a1 cb 3f fa 60 4b 91 a8 6d c1 bf
       0.21586060167635507 -0.13615901083426946
000520 21 d1 f1 e1 fd a7 c7 bf 51 07 e4 17 2f e1 b9 bf
       -0.1848142007107834 -0.10109228451986253
000530 8d cc 92 01 83 75 c2 bf 3e 93 b1 74 51 52 c5 3f
       -0.1442111737902433 0.16657465169842028
000540 a9 1c 1c c2 1d 4f b9 bf e7 ff 62 b0 b0 da c4 bf
       -0.09886346806534853 -0.16292389500267676
000550 b5 18 8c 18 91 9c 9c bf 13 8b 72 ca 62 12 b8 3f
       -0.02794100487064873 0.0940305465942795
000560 d4 13 a8 4a cf 5d b0 bf 97 75 0c cf 36 f1 a9 3f
       -0.06393142292661419 0.05066844251107765
000570 30 d6 ec 76 63 b3 85 3f 0c b1 da 53 00 4d c3 3f
       0.010596062723929739 0.15078739256330953
000580 6b 43 f4 54 19 63 87 bf 3f b3 f7 bb 82 b3 c0 3f
       -0.011419485001654647 0.13047823122124133
000590 54 56 a1 80 f9 5f c1 bf 08 0b 4a 5a e9 41 b8 bf
       -0.1357414129330886 -0.0947557301933949
0005a0 e5 a7 ba 20 27 30 c0 3f df a5 f8 1b 96 c2 b6 3f
       0.12646950815297867 0.08890665228741267
0005b0 c5 33 28 bb 81 30 84 3f ff f8 9d d7 a2 07 c5 3f
       0.009858144306258762 0.16429553535630956
0005c0 b7 f4 ab 58 62 b9 c4 bf 57 4e d2 de 4c 3e c7 3f
       -0.16190747575448025 0.18158875350910605
0005d0 da 01 0b db 7f 49 b2 3f 53 23 f6 73 15 69 b9 3f
       0.07143401239137095 0.099259701548488
0005e0 78 0f 89 a4 d4 02 6c 3f a4 5a 3f d6 77 ea c1 3f
       0.0034193185022405835 0.1399678989534624
0005f0 73 d0 f9 f7 94 d1 ba 3f bd cd 6f 08 56 de a8 3f
       0.10476046613786298 0.04857128956782784
000600 d8 a9 bd 92 1a aa c1 3f e4 d4 fe 1b 50 16 c4 bf
       0.13800365605432208 -0.1569309364983048
000610 ec 3e 41 7c 80 ff cb bf 9e ad 37 0f 6f 7c 96 bf
       -0.21873479907161852 -0.021959052375604686
000620 a6 f6 fa d1 d6 02 ad 3f 76 e4 d9 97 9e b7 b8 bf
       0.0566622859309807 -0.09655181128791121
000630 4c 55 1f 50 b2 a9 af 3f 71 5b 26 5f e7 55 ba bf
       0.06184155681664069 -0.10287328789705243
000640 03 1e 5b 68 b3 2b cc 3f f4 68 65 95 d8 7d bf bf
       0.22008364291671975 -0.12301400802008172
000650 6f 1d 98 35 d9 c3 d8 bf e7 50 74 01 7a 49 a5 bf
       -0.38695364221390255 -0.041576206853422275
000660 d4 18 89 93 f8 e9 92 3f e7 8a 0b ac 1f ca 9f 3f
       0.0184706535385651 0.031044478297995417
000670 a5 10 5d e4 5e da b1 bf d5 93 ee 29 1b 5b ce bf
       -0.06973832202226278 -0.23715533778627554
000680 e0 04 5c ac 39 c0 ad 3f b1 39 80 1f 4f c4 a3 bf
       0.05810718754765687 -0.038607094378778746
000690 63 77 e7 3d 63 d1 c4 3f 63 74 76 c2 cb 24 c5 3f
       0.1626400043741639 0.16518542285203627
0006a0 ce 9a 69 d9 00 1d d0 3f 0e ba dd c7 90 36 a9 3f
       0.2517702220124364 0.049244427106590036
0006b0 98 f5 f5 38 7e b8 c9 3f f5 14 e2 05 cc 9e c6 bf
       0.20094278126991294 -0.1767210987783653
0006c0 a9 83 e7 14 d9 29 93 3f 41 49 ef 8b 19 cc d5 bf
       0.018714324856663165 -0.34058226266383335
0006d0 24 99 c2 31 d0 3c c0 3f 94 1e 8e 31 c4 b0 94 3f
       0.12685587339110171 0.0202055602308336
0006e0 bb c8 fc f4 7b 90 89 3f 56 e4 a7 1c bc 77 a0 3f
       0.012482613004611278 0.03216350412180506
0006f0 5b fb f8 3d 4e cf c1 bf d5 89 61 b6 a9 6a c0 3f
       -0.13913896585469385 0.1282550945789597
000700 31 fa e6 93 d9 d0 a1 bf 12 07 82 b1 41 22 cb bf
       -0.03479652338454676 -0.21198292891863751
000710 f0 d5 34 7d 0f c2 89 3f 27 4c ed 84 02 5c ad bf
       0.012577172287460109 -0.05734260437625265
000720 93 6d 9d 48 c1 29 d1 3f 4f df cf 4d 74 bd 9c bf
       0.2681735238199618 -0.02806646084715619
000730 54 69 a1 be 6b 22 d1 3f 9f be c3 e6 6b cb c0 bf
       0.26772588363896443 -0.1312079312115104
000740 73 45 11 41 93 90 c1 bf b7 44 6e b2 fd 22 cc 3f
       -0.13722458531496393 0.21981784069479257
000750 ed d2 f5 da 5b 4b 7f bf c5 fa 92 68 58 ba c1 bf
       -0.007640227136438621 -0.13849930864485863
000760 e3 db ff f1 7a 3e c2 bf 6a 13 cf 76 d4 73 a8 bf
       -0.14253174606685012 -0.047758712294615105
000770 2c a8 85 f5 3e 04 88 3f c7 84 62 16 a8 c7 cd 3f
       0.011726848476161754 0.23265553563127225
000780 07 a0 cb 4e 7f 46 c9 3f 9c 54 4b ba 3e a0 a1 3f
       0.19746390674049527 0.034425697556494245
000790 9c d5 49 0b e8 49 d0 3f af fe 71 83 3d 5b ca bf
       0.2545108900297579 -0.20590943258502167
0007a0 47 28 88 b2 6a 2a ce bf 5f 2e 2f d2 20 68 74 3f
       -0.23566945760132027 0.004982116896779936
0007b0 50 b7 f2 2c fe f3 a0 bf 85 ff 1c 92 d5 34 ae 3f
       -0.03311151789362887 0.058996843420117386
0007c0 08 d6 19 d5 28 6e a7 bf 5f e7 10 10 ad aa c1 bf
       -0.04576232529954544 -0.1380211189696707
0007d0 a1 55 26 d3 ca 55 a1 bf e9 db 3d 81 49 dc d2 bf
       -0.03385766818534398 -0.29469525929692836
0007e0 f7 25 ba b2 9f a1 d2 3f 8c ac 58 47 d9 7f ca 3f
       0.291114735162949 0.207026634060956
0007f0 9b 91 20 d7 be 74 b0 3f 07 78 be 4a 6a 42 a6 bf
       0.06428139450196683 -0.04347545778658462

bias_ih_l0 f8 [128]
000000 19 48 2e 26 4d 81 b3 bf 63 46 65 c1 e2 90 c5 bf
       -0.07619173223636756 -0.16848406260628498
000010 af 7f 51 a6 a5 e1 a5 3f 43 11 55 9d 24 8f bb 3f
       0.04273717551472999 0.10765293923492884
000020 51 44 a7 69 c2 95 aa bf 54 be 5d 53 bb d1 c7 bf
       -0.05192382373537242 -0.18608800478567622
000030 c6 1a 35 ed 6f 39 b7 3f 99 b3 c3 d0 85 a6 9c bf
       0.09072017232129345 -0.027978983752223383
000040 8b 83 c5 56 18 4d b2 3f d8 d6 0b 26 ed eb c1 bf
       0.07148887747236025 -0.1400124011776629
000050 cb c0 fa 6a 1f a9 85 3f 22 84 c6 e8 72 a1 d0 bf
       0.010576482250457172 -0.2598540566633024
000060 65 94 26 c5 cb e1 c4 3f 21 d9 e4 2d c9 32 a0 3f
       0.1631407463693534 0.03163746533612
000070 62 61 3a c0 c1 c0 80 bf 8a 3d 42 4c 23 ee a2 bf
       -0.008180154494127737 -0.03697309785740817
000080 81 b3 d6 31 c5 22 d3 bf 85 76 9d 99 5d 5d 85 3f
       -0.29899721018846753 0.010431987047634603
000090 3d d5 10 82 06 d8 b1 3f 6a 5c 18 bd f4 89 5a bf
       0.06970253634866182 -0.0016198053384693053
0000a0 e6 b2 78 59 18 ae c0 bf 7b 0f 44 7e 27 d8 a9 bf
       -0.13031296128010367 -0.05047725120860399
0000b0 61 63 10 ee af 71 a4 bf ed e0 3a 2c 5f 49 b3 3f
       -0.03992986470274818 0.07533831434091427
0000c0 51 cd 45 54 c6 79 b1 3f 4c 5f d8 48 ab ca 93 3f
       0.06826438481748666 0.019327808686369338
0000d0 59 e3 af c4 c6 74 99 3f 2c 94 00 f4 bb 02 bd 3f
       0.02485952926142274 0.11332297045790146
0000e0 b1 4e 2b 33 91 4e 97 3f e7 ec 8f f2 c4 e4 c3 3f
       0.022760647533529525 0.15541898578508226
0000f0 34 ce 7d 38 ca ef ca 3f f3 57 03 2f f5 96 cd bf
       0.21044280775423518 -0.23116936488685233
000100 2f fa fe c6 84 71 9b bf ee b5 a3 d0 75 c8 cb bf
       -0.026800226827385195 -0.21705506026721316
000110 b7 a0 b4 03 ad ab af 3f 0c 4b 36 58 10 6f 8b bf
       0.0618566576980028 -0.013395431224841235
000120 bf c7 e5 82 d1 63 b6 3f 80 b2 f2 7a 41 8c 82 3f
       0.08746060796491316 0.00905657917459135
000130 95 86 86 47 7c 00 8e 3f 4b 9e bf 07 f9 f2 ca 3f
       0.014649363453659784 0.21053994062752887
000140 21 ad 3c b8 16 3c 9e bf 3d d5 29 c5 43 be b6 bf
       -0.029526095385489563 -0.08884070933875861
000150 d4 62 c3 c3 b0 dd b7 3f 7b b9 ff eb 25 56 b1 3f
       0.09322647837997106 0.06772076617901306
000160 9f 19 39 3e a8 b8 ba bf 69 51 2f 46 2a eb b9 3f
       -0.1043801452552544 0.1012445851659486
000170 3a ad df 48 4a f5 a2 3f 3c ee d8 a8 b5 b2 bf bf
       0.03702766551563248 -0.12382064220667471
000180 22 38 9b 86 0d 76 86 3f 78 91 30 49 9b 03 c9 3f
       0.010967355413779304 0.19542256425587445
000190 a1 c4 f4 80 e5 9d 5d 3f ab cf 36 3b 2f b0 a0 3f
       0.0018076649901781832 0.03259418104008146
0001a0 e9 17 89 c7 e7 79 ae 3f f1 86 ae 04 9c 06 a2 bf
       0.05952381430374471 -0.03520667607450701
0001b0 c1 6c 3e 19 f4 9d 6e 3f f2 d5 d5 15 d2 60 c5 bf
       0.0037374274779274634 -0.1670172316186576
0001c0 87 02 ba 4b 20 8d 75 bf 6d 7b d1 f8 cc f4 a8 3f
       -0.005261541514869911 0.04874268090565335
0001d0 c7 61 7d ec 19 7a c7 bf c5 a3 23 98 ad b9 c6 3f
       -0.183413734887621 0.17754144600556124
0001e0 52 d6 3e a7 45 ec a6 3f 98 2a d4 eb d6 85 c2 bf
       0.04477136293955354 -0.14470945849491978
0001f0 00 7f 38 74 f8 fe a6 3f fd ce 57 13 6e 49 98 bf
       0.04491402071675843 -0.023717613154032858
000200 3a 06 7b a5 2f 19 ab 3f 52 99 3d a3 05 e6 c2 bf
       0.05292652983690656 -0.14764471503003535
000210 be 3b f1 8e 88 93 c3 3f 35 6c ec 43 a0 fd c8 bf
       0.15293986301045764 -0.19524005238130973
000220 53 4a 01 53 e1 3c cb 3f 72 3f 1c 44 b2 c7 bd bf
       0.21279541542988287 -0.11632837450838254
000230 da 2d fa 48 36 7a c3 3f 85 e1 71 3f 78 d2 b5 3f
       0.15216711581557157 0.0852427630324027
000240 31 5b ca 5c 77 04 c5 bf 70 96 46 30 22 b1 c1 3f
       -0.1641987994268788 0.1382181869241097
000250 81 7c 6b 9e c2 df c7 3f 8e 92 dd 3b 53 07 a4 3f
       0.18651612029404777 0.039118386323740414
000260 10 ce e3 a6 cf 18 c7 bf d9 09 65 10 5b 3f a1 3f
       -0.18044467591208546 0.033686490775398155
000270 c6 1f 04 71 04 18 b9 bf 7f 33 4d ef 58 90 bd bf
       -0.0980227256696927 -0.11548381655047811
000280 f3 b0 dd b0 05 89 a4 bf 40 8b 13 74 48 73 80 3f
       -0.04010789665230332 0.008032384912842638
000290 eb 74 81 97 1a 5c b8 3f de f9 13 99 d6 93 a8 3f
       0.09515539358968154 0.04800291651371301
0002a0 3a 4d 2b cb 8c 07 b2 bf a4 78 11 dc f2 c2 c3 3f
       -0.07042770347770935 0.15438686128158452
0002b0 2c 7e 41 be b3 39 8e 3f c1 da 56 56 ad 8f c2 bf
       0.014758495563170625 -0.14500967708382542
0002c0 cb 79 b0 13 95 a1 ae bf 0f 13 ce 8c c7 7b 95 3f
       -0.05982652535771001 0.020979993790677883
0002d0 aa 55 c9 7a 45 af 92 bf 52 b1 cb b8 de ce 9b 3f
       -0.018246732348719576 0.02715633395102774
0002e0 22 e8 e4 a1 a4 71 b9 3f 27 77 c4 57 2c f9 c2 bf
       0.09939030601972879 -0.14822916303176578
0002f0 81 da 53 ca d4 3e a9 bf 64 94 e8 02 67 33 5a bf
       -0.04930748910731087 -0.0015991693468404783
000300 a3 67 ef bd 20 2e c9 bf 04 35 ee fd 2d 41 bc bf
       -0.19672021173647378 -0.11036956262087833
000310 a7 2a 99 ab 76 b3 c0 3f 8a 7c 34 49 80 9a b7 bf
       0.13047679308723056 -0.09220124995452941
000320 ed 78 0c 45 4b 4d 91 3f e9 dd d4 cd 15 68 98 bf
       0.016896415795707154 -0.023834553420980873
000330 34 1a 01 d8 a7 aa ae 3f 05 70 a8 4e dc 43 ba bf
       0.05989574920436205 -0.10259797020302137
000340 23 7a 26 d9 b1 9a b9 3f 23 7d 7b 2a 38 33 c0 bf
       0.10001670409699463 -0.12656309198698876
000350 e9 13 0b a1 e9 65 ac bf 1c 14 e6 9d c4 e7 b8 bf
       -0.055465031536676986 -0.09728649954747975
000360 f7 e9 07 cb 5e 24 76 bf af 9a db ae a8 10 c8 3f
       -0.005405779157167326 0.1880083898351663
000370 fa ec ed b0 25 66 ba bf c7 9a 2b b3 90 27 a9 bf
       -0.10312114305081713 -0.04912998377931426
000380 07 dc c5 eb 0c 22 d4 bf 0a c6 1b ff 21 11 be bf
       -0.31457827591606285 -0.11744892576441415
000390 16 5f 1d 38 e7 5e ca bf 42 13 ac 67 75 62 73 3f
       -0.20602121582009464 0.004732569325601345
0003a0 79 3e 0d 34 14 99 c7 3f c0 ce f2 fa da 6a c4 3f
       0.1843590978773937 0.15951096776335838
0003b0 8c 65 25 94 ee 25 bf bf 25 10 a0 c7 f3 43 ad bf
       -0.12167254559371637 -0.05715905963737126
0003c0 64 06 fd 83 30 58 cb bf f1 bd 5a 6a 8f 76 a1 3f
       -0.2136288303827768 0.03410766766807772
0003d0 0d 12 0f b7 24 8c 8e 3f e7 3f 82 6c a6 14 b2 3f
       0.014915739857209532 0.07062759541645357
0003e0 a1 95 be 6c d3 5d b5 bf a3 6b 2b 2e c9 16 af bf
       -0.0834629192819052 -0.06072071732133757
0003f0 5a c6 41 f9 23 18 b4 3f e1 30 31 1e 1e 8c b8 3f
       0.07849335513471925 0.09588802563775146

bias_hh_l0 f8 [128]
000000 3f 11 21 4f 5a d8 9a 3f fe 71 19 35 95 3c 83 bf
       0.026215945319806307 -0.0093928963498735
000010 e1 f0 6f a9 8c e9 a8 bf 63 d9 c7 53 63 fd c2 bf
       -0.04865684097600976 -0.1483577879987009
000020 46 c5 41 27 55 86 9c bf 09 2c ab db 0e e2 a3 3f
       -0.027856188317348506 0.03883406096937143
000030 75 b3 dd d2 54 c3 b3 bf 93 72 87 60 be 9b bd bf
       -0.07719926975341969 -0.11565770966212545
000040 44 0d 45 76 51 9e 80 3f 5a ec 33 96 91 fc b7 3f
       0.008114468023115003 0.0936976424890629
000050 79 20 ae b8 67 47 ab bf b2 f5 7c a8 ff fe bb bf
       -0.05327915315052762 -0.10935972083549109
000060 df d9 2b 5b bc 78 b9 3f 7d 30 0f 9a c5 42 98 bf
       0.09949853158818865 -0.02369221451571989
000070 0c ce d2 60 30 f2 ac bf af 2e 9f 88 8e 00 b8 3f
       -0.05653525525977096 0.09375849566930115
000080 f4 0c e5 20 f2 0d ce bf af ac 55 68 18 3a bd bf
       -0.2348005924814981 -0.1141677145694071
000090 fc 43 89 22 d4 11 cc bf 4f 7a 16 f1 4d 67 b5 3f
       -0.21929408727967814 0.08360755096371374
0000a0 56 7f a7 8e 7f fd 8b bf 8f 2f 0f 38 02 1b c6 3f
       -0.013667103329623547 0.17269923913260896
0000b0 51 9f f2 09 05 4b c4 3f 6c 82 9d c4 f6 89 bb bf
       0.1585394190381018 -0.10757391262223742
0000c0 3e 92 f7 0f b2 77 7a 3f 19 c8 8e c1 01 15 bc bf
       0.006461806827676995 -0.10969553924113064
0000d0 87 27 aa 5b 5a 4a 8e 3f 4f 96 0d 56 6b 80 b0 bf
       0.014790254518874736 -0.06445952273278376
0000e0 4c 2d 09 25 ed b7 9b 3f 37 19 51 4b 7f 2b c5 3f
       0.027068810830582365 0.1653899305112618
0000f0 37 7b cd 74 af 4d ab bf 20 6b 0d 8d 62 1c 92 bf
       -0.05332706738294351 -0.01768640504756569
000100 6d 22 44 8b 9c bd bc 3f 4e 4b f1 ea b9 0f 92 bf
       0.11226824188282487 -0.01763811584926183
000110 bf 6e af 87 00 ae 80 bf 64 8b e3 3d 39 1b b4 bf
       -0.008144382611070864 -0.07854039917905947
000120 33 89 00 e8 99 8b c7 3f 7e 28 c9 ff a2 ee c2 3f
       0.18394779041506978 0.14790761460819007
000130 53 4c 3e e7 97 e2 c4 bf fa 13 ad 01 3e 1a bb bf
       -0.1631650809400492 -0.10586917439384527
000140 7d 6f 8c c6 85 d2 bc bf 29 85 cc 84 db e5 cb bf
       -0.11258731934907291 -0.21795219406434654
000150 26 50 93 e1 36 7e b8 bf 21 7f 97 b8 94 4e ac 3f
       -0.09567587859356816 0.05528702500646277
000160 84 f8 95 d2 c9 28 a3 3f 06 8f 82 19 ee 5b 87 3f
       0.03742056556346632 0.01140581145620657
000170 f7 ae 6c 25 4b 1c c4 bf 3c 85 c8 7c 7b 23 b7 3f
       -0.157113450311378 0.09038516804186697
000180 5e ab 92 28 8c 26 cc bf 85 80 9a ed b4 4f c1 bf
       -0.2199263761625287 -0.1352449569867568
000190 0f 7e 4c ca 01 9a 9b bf 70 0a 25 f3 7c 22 7c 3f
       -0.02695467755540731 0.006868827900975746
0001a0 e1 0c ac 95 d5 46 6b bf 9a 15 e1 da f3 0f 98 bf
       -0.0033296748709986533 -0.023498354181602822
0001b0 c9 92 24 1f 37 f0 c6 bf a8 fe ae 62 24 98 b0 bf
       -0.1792057897629518 -0.06482150468127179
0001c0 18 8c 5c c3 43 16 c2 bf 76 2f 76 f2 9a df 90 bf
       -0.14130446471344338 -0.016477986382184416
0001d0 5d 2b 33 6f 7b 83 ab bf 96 fb 17 8a 63 67 bf 3f
       -0.0537375043146173 0.12267133828571128
0001e0 11 63 f5 9c 2d ae b0 3f 53 0d 9a 48 95 99 bc 3f
       0.06515774805064846 0.1117184927225499
0001f0 8a 0c 7d 17 bb f2 b3 3f a5 3e b7 92 27 71 c4 bf
       0.07792252849053419 -0.1597032038102856
000200 c8 41 01 db 8c 1e bd bf b1 62 bb e8 d1 e3 c0 3f
       -0.11374740931319771 0.13195251335016203
000210 3d 71 6e 52 3b 63 af bf 52 49 c0 5a b9 af 80 bf
       -0.061303952991894374 -0.008147667009357793
000220 32 1d 0b 5b ff 0d a2 bf 52 b8 1e 07 54 18 a7 3f
       -0.03526304231996348 0.04510748469270766
000230 1b 7d 6f 29 f0 0c bf bf ce 9f 70 a4 fd 16 b2 3f
       -0.12129117023095086 0.07066331162115988
000240 27 e0 9d 0c fe 9c 96 3f 1e 5d 53 81 ff 1a 96 bf
       0.022083253402769423 -0.02158736445275366
000250 70 e0 fd df 31 76 a6 3f 0d 80 78 fe 50 60 c1 bf
       0.043870504944551025 -0.13575184274031962
000260 b7 0c 11 6e ed e2 ba 3f 4a 55 8e ff 06 a4 86 3f
       0.10502513825581415 0.011055044816923005
000270 06 74 01 72 dc 5f b5 3f c5 77 ea 4f 11 2e 8a 3f
       0.08349397452680316 0.012783179522838037
000280 dc 92 ba a5 02 af b6 bf 28 85 f0 9d 26 2f a7 bf
       -0.08860794588197102 -0.045281607417800906
000290 ee 4b 5a e2 23 75 a9 bf 98 d9 61 04 6f 4e b9 bf
       -0.04972183359236469 -0.09885305268276168
0002a0 f7 75 71 9f 29 0c ac 3f 0d 97 59 94 e2 2d c3 bf
       0.054780293191225064 -0.14983780139589734
0002b0 d5 e0 37 3e 8d 03 c1 bf 9e ad cb 03 49 e7 b5 3f
       -0.13292089021684342 0.08556038229624227
0002c0 9b 3b 12 35 53 02 c4 3f 96 4b 65 ed e1 62 97 3f
       0.15632095424049627 0.022838144411547377
0002d0 72 86 49 8e 25 b9 c2 3f cb b1 77 ce 66 e0 6d bf
       0.1462752289544827 -0.0036470420779919125
0002e0 16 e9 eb 97 12 f8 9e 3f db 79 8d 8c e8 fc c2 3f
       0.030243196985773123 0.14834315169259935
0002f0 e3 3d 05 bd b9 1d c5 bf b4 cd 41 39 4a 58 b4 bf
       -0.16496965150370987 -0.07947219751240803
000300 35 20 c0 28 c7 88 b9 3f f6 92 c9 5f 6e 86 c4 bf
       0.09974331612477345 -0.16035251309508397
000310 02 fc e6 02 c5 03 b1 bf 91 a5 05 0e c0 05 ad 3f
       -0.06646376915794863 0.056684495650937035
000320 e4 92 7e 7d 25 f7 a0 3f 6a 45 20 bd 5b 69 c7 bf
       0.03313557774462142 -0.1829027818171583
000330 c2 66 71 67 d0 d2 b2 bf e0 27 2a fc f2 c7 9e 3f
       -0.07352926755393255 0.030059620514783947
000340 35 0a 73 33 44 7c 92 bf 30 56 70 2a 13 a2 8f bf
       -0.018052163734646427 -0.015445852024679046
000350 55 e8 07 cc 83 c1 a6 3f 4d 6c 3b c0 3e 18 c5 bf
       0.04444515100108563 -0.1648024023660092
000360 3d 76 22 5d 08 9b b8 bf 98 ac ec 28 56 74 c5 3f
       -0.09611561082643845 0.1676128101183607
000370 5d 01 5f 09 6f 29 8a bf 5f 52 fc 39 85 cf b8 bf
       -0.0127743410811269 -0.09691651025452462
000380 b3 8a b0 41 7b 29 ca bf d8 73 bc 90 8c 16 a8 3f
       -0.20439091403485107 0.0470470358543264
000390 fe 05 68 07 1a fe cb bf 80 f2 c1 89 23 cb b7 3f
       -0.2186920677341248 0.09294340241644683
0003a0 6d 32 0c 97 16 9c c0 bf 42 10 e2 fc 99 c4 c0 bf
       -0.12976343512891067 -0.1309998020916528
0003b0 4d 33 e2 5b b2 c5 b0 3f 7c 62 b9 02 2f e1 ae bf
       0.06551661246539915 -0.06031176479581732
0003c0 db ce 11 71 33 b5 a2 bf 2d a5 36 46 b8 3f b6 3f
       -0.03653870349162754 0.08690978731342076
0003d0 db 23 9f 76 0e 0b bd bf 95 f3 17 6a de 19 b0 3f
       -0.11344995876346735 0.06289472665953462
0003e0 14 5b 7e 3b 19 02 bc 3f d6 09 ad b8 9f 6f c6 bf
       0.10940702154617227 -0.1752814914453455
0003f0 48 91 9d b8 38 ba 33 bf 9b 58 31 28 54 02 b1 bf
       -0.00030101666253858463 -0.06644178372639191
