save/model.pth (torch, 408635 bytes, 54 tensors)

weight f8 [1, 50]
000000 6a 1e 15 15 6a 08 85 3f b8 12 57 ef 3d 7b bc 3f
       0.010269955414187144 0.11125552266373517
000010 c4 c4 78 88 7d d4 bb bf eb bc c8 8b 14 22 b8 bf
       -0.10871109563665288 -0.09427002346705009
000020 11 d5 dd 88 da 19 97 bf 5f f0 fd 12 bb b9 a8 3f
       -0.02255956135146159 0.048292013233521607
000030 5a 4d 0f 51 5b b8 9b 3f e5 25 cd ec f9 03 a0 bf
       0.02707045252084348 -0.03128033652917476
000040 43 30 4d 54 4e fa 82 3f 48 6b 9d 20 b2 c9 74 3f
       0.009266483256986762 0.005075164613880308
000050 a9 6f 5a 60 f4 a2 8a bf 79 db 03 77 05 98 b8 3f
       -0.0130061237244304 0.09606966167107868
000060 23 d5 af 1b 69 77 a1 bf e7 59 27 f0 10 ba b9 bf
       -0.03411415541624254 -0.10049539435508557
000070 61 ff 57 a4 e8 d5 be 3f 59 ed 9e a9 9b ab 9c 3f
       0.12045148861215928 0.027998382785637464
000080 8f 83 fb 00 b5 d6 a9 bf 55 38 f5 0a 08 6d b1 3f
       -0.05046620976441495 0.06806993739630347
000090 0e 0c f8 c0 cf 0e a2 3f fc 2c 50 a8 4e 3d a4 3f
       0.0352692530687123 0.039530237241786254
0000a0 a5 90 c9 5e c0 d8 b0 3f 09 0d c0 99 57 df a3 bf
       0.0658073645986997 -0.038813340681395365
0000b0 6b f2 c0 de ac 68 c1 3f b3 15 30 d5 15 95 b9 bf
       0.13600693585057697 -0.09993111090451272
0000c0 e9 f8 ca d6 82 37 b1 3f c6 a4 1d ec 65 9a ab bf
       0.06725328201261828 -0.05391233927986998
0000d0 47 e7 a1 06 f8 9c a3 3f 54 a8 3a 33 ff 37 a9 bf
       0.038306952294944234 -0.04925534725528338
0000e0 d0 ea e5 1b ff c1 b5 bf 35 fd e3 94 34 a0 b8 3f
       -0.08499140196901611 0.09619454035781845
0000f0 d2 a5 42 e5 9c d5 96 bf 55 3b 52 d9 91 9b b2 bf
       -0.022299243443432655 -0.07268630557721896
000100 ba e8 b1 2c 45 f1 be bf 46 f3 0b 57 c2 de ac 3f
       -0.1208689912909077 0.05638701737004807
000110 23 87 94 5f 64 8b aa bf c9 53 be a6 55 7e 95 3f
       -0.05184472719908075 0.020989740659917353
000120 2a 5e 12 16 d3 a0 a7 3f ab d7 2d 67 79 58 b6 3f
       0.046148868984513605 0.08728750962276759
000130 b0 1f e6 28 9f 5c b9 3f cb bf 0b 73 a7 05 a0 bf
       0.09906954525479139 -0.03129313735359992
000140 9f 53 c7 1c a9 17 b7 bf 73 6d 22 b2 c8 23 ad bf
       -0.09020478203394909 -0.056913635010654405
000150 ec 31 8a aa 4e ba a0 3f ac c5 34 d4 05 b4 89 3f
       0.032671411817407264 0.012550397432820791
000160 d5 d7 83 fe be 42 bb bf bb b8 74 35 61 2f b1 bf
       -0.10648721421952641 -0.0671292071826625
000170 37 9f b5 fd 32 4c 8c 3f be ae fa 55 09 e5 c3 3f
       0.013817213409040725 0.15542713831142935
000180 e9 a0 4a f9 4e 1d b3 bf 70 b8 c7 89 13 f0 94 bf
       -0.07466596208780953 -0.020447068485673403

bias f8 [1]
000000 f4 08 79 42 4e bf a4 3f
       0.040522046675066564

weight f8 [10, 10]
000000 c9 83 1b 85 19 25 d0 3f ea 28 30 77 33 95 d3 3f
       0.25226438521172817 0.30598150863137497
000010 9f 7d ba 05 45 76 b0 3f a8 b0 a0 36 b1 92 c8 3f
       0.06430465116363003 0.19197669188850353
000020 ee 16 a2 a0 f0 8e c2 bf d6 a1 cb 2b 2d 63 c9 3f
       -0.14498718112388737 0.1983391250462449
000030 ac 2c ec 4d 88 57 c1 3f 47 a7 54 cc c6 1a cf bf
       0.13548377804577194 -0.24300465561946735
000040 1f 20 60 d4 a1 8f b1 3f f7 91 57 c6 d2 8f d2 bf
       0.0685979026312684 -0.29002827996580954
000050 db bb 26 24 7a 34 8c bf f2 7a 83 3e ff de cf 3f
       -0.013771967151880496 0.24899282982274645
000060 7e 13 a3 db 81 9c d1 3f de cf 5f 26 a0 76 c8 bf
       0.2751774449246155 -0.19112016557448802
000070 1b b8 d7 21 f1 61 c1 3f 2c 66 8f 53 7f 94 c5 3f
       0.1358014502761201 0.16859428005300126
000080 73 ea 7d 6b ce 62 c1 3f 7b eb 87 90 cf e6 cc bf
       0.13582782982469474 -0.22579378659414914
000090 5c 61 a2 59 a3 68 c5 bf 9c 6a 65 f7 cd 7a d2 3f
       -0.1672558009784194 0.2887453952768426
0000a0 2f 75 ff b9 a5 57 d0 3f cd 61 40 54 25 f0 c1 bf
       0.25534957088332794 -0.14014116872637175
0000b0 68 9a 01 3e 91 d8 a4 bf e7 66 80 03 75 63 b0 3f
       -0.0407147777739752 0.06401759467589906
0000c0 59 b8 5b 9d e0 9e ce 3f c6 35 de 13 1e 7b 90 bf
       0.2392235535002694 -0.016094655954977964
0000d0 15 82 cd 69 25 fa cf bf e1 8f 65 0c af 41 94 3f
       -0.24982135454321566 0.01978181374705901
0000e0 79 6e 26 f2 49 87 c9 3f b6 2d 4f 73 6d 1d d1 3f
       0.1994411880849503 0.26742111454651807
0000f0 05 d6 f1 3d af 39 cf bf 0a 88 98 21 8f f8 b5 3f
       -0.24394789242403206 0.08582396097384062
000100 a7 34 c8 6c d7 67 cd 3f cd a6 db 71 ec cf ce 3f
       0.22973149119971945 0.24072032508347832
000110 cf ac 40 57 52 24 d1 3f 55 89 07 d4 7d 97 c5 3f
       0.2678418972088367 0.16868565419197049
000120 64 8f ee 70 5c 30 d6 bf 73 32 d6 fd d1 c5 d0 3f
       -0.34670172718528236 0.262073991668138
000130 b0 a2 1c 5e 24 81 b6 bf a5 3a b0 47 11 4a c2 3f
       -0.08790805146839875 0.1428853607216826
000140 52 b1 06 f9 c8 d8 9b 3f cb 61 2f fd 31 13 a9 bf
       0.02719415683684307 -0.04897457328451401
000150 2b 14 14 86 c2 6d 78 3f 3c 64 dd 66 fe d0 c8 bf
       0.00596405015790417 -0.19387798330970607
000160 a4 83 fa 2b 0a 4a d2 3f 73 89 38 b0 09 6b c5 3f
       0.28576902670652715 0.16732903580220757
000170 ae 05 1a 69 c0 8b a5 bf f8 6f fb 60 af 4e c6 3f
       -0.0420818451211845 0.1742762778802669
000180 dc 60 92 2c 43 c8 ce bf de 96 01 1a 49 fc c0 bf
       -0.24048652340275722 -0.13269914407572164
000190 f1 4f 00 48 19 b1 d9 bf 11 96 cb ce af 51 98 3f
       -0.40143425017708895 0.02374911021879284
0001a0 4d 85 d8 53 70 d7 9b bf da 27 88 8f fe b1 d1 3f
       -0.02718902122263005 0.2764889146498014
0001b0 1c 2a ac ac 3f ab a9 3f 0b 07 1f db 98 c3 d1 3f
       0.050134649112880875 0.2775632991652947
0001c0 96 ff 8f 48 17 dd bb bf 3b 6b bb 05 bb 5d b7 3f
       -0.10884233018441444 0.09127396478599518
0001d0 53 82 61 21 6d dc cf bf d0 aa 41 af bb bc b4 bf
       -0.2489143765442515 -0.08100483921740964
0001e0 f6 73 23 11 f1 52 cb bf 5c a4 54 da 25 58 d3 bf
       -0.2134686788257622 -0.30225511857367393
0001f0 93 b5 bd e6 95 9a b0 bf a1 68 81 19 db f8 c7 3f
       -0.06485878833128415 0.18728197808633687
000200 29 d3 6c c9 9a 37 be bf 45 ff c6 14 9d af b8 3f
       -0.1180359594116679 0.09642965085276696
000210 48 34 a7 4d 0e c2 d4 bf e4 7d d7 5e 98 8a c5 3f
       -0.3243442304927311 0.16829208975739995
000220 77 ce d4 a5 ce 45 af 3f c0 05 0d 06 6b ef a1 bf
       0.06107946180636941 -0.035029739845878094
000230 61 04 3a a3 c9 67 c3 3f 16 df ab f3 bd 63 c0 bf
       0.15160484762239704 -0.12804388425842522
000240 27 97 0d 5f cd aa c7 bf 1e 64 f8 8e 6c f1 d0 bf
       -0.18489997044815107 -0.26473535501424006
000250 50 2d 14 61 8c 8b ba bf 85 63 ee 70 b2 73 ba bf
       -0.10369183893287937 -0.10332789666280291
000260 5c ee 54 e3 2a 7b ac 3f ff 67 03 f1 89 9b a6 bf
       0.05562719368978428 -0.0441554171281524
000270 4a 28 12 e8 92 d2 c3 bf aa a5 c2 43 15 c3 be bf
       -0.15486370402897115 -0.12016423134141144
000280 31 33 e4 a1 90 ab c6 bf f5 f6 58 14 dc df bf bf
       -0.1771107473836309 -0.12450957772031386
000290 c6 fa e7 8c bd 5f b4 3f f8 ae d7 e0 0c f3 cc bf
       0.07958588304607436 -0.22616730669630392
0002a0 6a d2 19 51 44 75 9e bf e6 cb 94 00 d8 c2 c1 bf
       -0.029744212579731068 -0.13875865963345219
0002b0 b5 83 14 c3 33 05 ce 3f 0e b2 2c 90 e4 2d 95 3f
       0.23453375840565874 0.02068287973377108
0002c0 a1 49 9d e5 54 85 cd bf f4 91 ed 91 69 72 a1 bf
       -0.23063145839348656 -0.03407602220866926
0002d0 1e 37 ff d7 ce 33 94 bf 56 e5 41 37 c1 26 d1 3f
       -0.019728881772429145 0.2679904021857359
0002e0 ba 67 37 0b 6d 69 92 bf 9c a1 23 97 8a d0 d1 3f
       -0.017980293092342704 0.27835335502325065
0002f0 37 7c 40 8a 53 60 c6 3f 97 71 99 7a 26 b3 c5 3f
       0.17481464624958828 0.16952973352716746
000300 8c 10 96 be fc 62 c2 bf 9e fc eb 8a 8b 25 cb 3f
       -0.14364585214582737 0.21208328517238767
000310 53 d6 04 30 99 61 c1 bf 9c a4 50 aa 98 6d bd 3f
       -0.13579096645996688 0.11495355756837217

bias f8 [10]
000000 8a e7 59 58 1a 76 d4 bf dd e1 d7 4e 3a fc b5 3f
       -0.3197084296040137 0.08587994027028097
000010 c4 14 6b f6 b8 41 9c bf a2 a7 b3 4b 05 63 d4 bf
       -0.027594461479357305 -0.318543743064419
000020 d8 4a 67 23 8d 20 d9 bf 6e a2 ab 70 3b 24 cb 3f
       -0.39261177499171884 0.212043218626849
000030 f2 2b 7e 9d 98 05 d5 bf 64 78 d3 c3 08 f0 c9 3f
       -0.3284665620819275 0.20263776361292962
000040 7a 19 48 d2 86 01 ca 3f 6b d5 65 a7 06 37 cf 3f
       0.2031715895429434 0.24386676000328164

weight f8 [10]
000000 20 92 74 d5 5e 29 f0 3f f5 e4 68 3b fb 15 f0 3f
       1.0101002061939042 1.0053665466969595
000010 13 07 26 e0 2f f9 f0 3f a2 10 29 92 bb c4 ed 3f
       1.0608366733362729 0.9302652220435628
000020 ed 82 30 1a 8f 14 ef 3f 15 c3 14 75 dd 03 f2 3f
       0.971259642745364 1.1259436200600181
000030 e5 db 52 be 67 98 ea 3f 84 67 a2 c7 46 84 f0 3f
       0.8311041562327516 1.0322940633982123
000040 3c d4 01 5b 6c 64 f1 3f 1d 20 06 9c 7c af f0 3f
       1.087017398354205 1.0428434462246579

bias f8 [10]
000000 d7 b8 b1 bd bd 39 b0 bf ed 89 7f 41 94 0c 9a bf
       -0.06338106042105394 -0.02543861055154111
000010 68 e8 f3 e3 52 da a8 3f f5 8e 47 02 8b aa a4 3f
       0.04854067833544279 0.04036363985849604
000020 01 cb 20 5a cb d8 9b bf 60 aa 1e 6a 08 ed 59 3f
       -0.027194192291243095 0.0015823919461392041
000030 35 8d 6f d6 ce 28 91 bf f6 1e 40 72 37 2d 92 3f
       -0.016757232511634263 0.017750612591071545
000040 1e 99 37 80 c6 c1 9f bf df f2 62 dd af 64 97 3f
       -0.03101263196540415 0.02284502781616282

weight_ih_l0 f8 [128, 10]
000000 ba 59 8e 2e 97 91 c5 3f b7 b4 e2 b4 4f 57 bd bf
       0.16850557111020043 -0.11461351553107844
000010 25 02 fd 44 aa d1 b3 3f 34 e4 58 63 e7 dc 75 3f
       0.07741798576626786 0.0053376234623608194
000020 a8 d0 44 47 c8 cf ae 3f 8c 5e 7e cc 5d 84 c1 3f
       0.06017900342922761 0.1368520020011953
000030 3a a4 15 e4 2b 73 b1 3f 19 67 41 78 3d c0 81 bf
       0.06816362684698243 -0.008667450172811496
000040 be 32 a3 d4 7d 14 92 bf 81 03 b0 80 11 59 c1 bf
       -0.017656293967592822 -0.13553065093585917
000050 e4 ea e4 02 c9 79 cc bf bb d6 fe 26 bb 46 b4 bf
       -0.22246658936804586 -0.07920427038228699
000060 46 78 cf 8f de 2c 8d 3f cb ed f1 31 2a de 9c bf
       0.01424573780417061 -0.028191241548922535
000070 0e 9c 9c 22 c3 a4 c4 bf d8 a5 0e 02 9a fd a1 3f
       -0.16127814474131735 0.03513795161354566
000080 78 11 70 0b 3e c7 a8 bf bb d2 11 56 de 98 c4 3f
       -0.04839509858723806 0.16091517641657113
000090 0c 5a 87 e2 43 ca 9f bf 09 d7 00 cf 57 5c c7 3f
       -0.031045017911163028 0.1825055847891053
0000a0 db 5d d1 6d 33 92 b7 3f 87 1e 10 73 69 81 9f bf
       0.09207459860896654 -0.030767104766737077
0000b0 a0 03 39 a5 a0 ce bb 3f b7 75 63 a5 12 68 b4 3f
       0.10862163575894934 0.07971302545362034
0000c0 7a 52 98 50 ae 60 c3 bf 4b 3b 9a 3b fc af b2 bf
       -0.15138796744635724 -0.07299782233370171
0000d0 65 a8 27 5a ea b4 c6 bf d3 4c b1 58 55 dc c1 bf
       -0.17739610101790784 -0.1395365412778121
0000e0 3e 11 76 e1 09 1d c1 3f 4c 0f 5c b0 f6 c0 d0 3f
       0.13369868763778386 0.26177756521814355
0000f0 0f 06 03 1d 2c 8f b5 bf d3 7d 12 df 46 91 a0 bf
       -0.08421588619514629 -0.03235837433862412
000100 d6 51 2f 9b 26 9e c8 3f da eb 9c 7e 82 5c c9 3f
       0.19232637956032644 0.19813567335390198
000110 00 d3 42 39 3f 76 b9 3f cf 76 c2 11 a2 99 a8 3f
       0.09946055553411881 0.04804712740700056
000120 bd bb 6d 5a 45 6b c1 bf e0 3f aa e8 01 fa b8 bf
       -0.13608614840947367 -0.09756481104182013
000130 dd 99 90 b2 3f 35 ca bf 40 a4 b1 ef e3 b0 cb 3f
       -0.20475002497660358 0.21633576587490388
000140 d1 7d 21 43 f7 07 c6 bf 8c 5a 96 01 59 3f 97 bf
       -0.17211809900162092 -0.02270258972347476
000150 3a 43 6f cd b4 c5 b7 bf e7 81 aa 74 ed 33 bf 3f
       -0.09286050811284677 0.12188610170642954
000160 54 b9 f2 c7 a6 08 c3 bf 02 db dd 84 ff 5d b5 3f
       -0.14870152247517388 0.08346554750265159
000170 ac 9e 7a 3e 20 91 c5 3f b0 6d 2c 09 b1 7e bc 3f
       0.16849139261943458 0.11130815957988349
000180 21 f5 84 e6 d7 cb d2 bf 78 26 9a cf 29 95 cc 3f
       -0.2936916114011457 0.22330210339378076
000190 d7 d7 cf 2c 27 ab 91 bf 02 22 c5 87 23 cd bd bf
       -0.01725445948610357 -0.11641141953180781
0001a0 88 78 90 e4 fb 0d b9 bf 0c 64 06 9f 06 4c c6 bf
       -0.09786962824043333 -0.1741951252450068
0001b0 b8 bf b8 af 7c 1e bb 3f dd 50 cb d2 d5 af 9c 3f
       0.10593394556121793 0.028014508238656134
0001c0 31 db e0 ba ff 67 81 3f 5d 40 e3 8c ed bd d1 3f
       0.00849914349610756 0.27721728094639336
0001d0 c8 e2 ba a6 53 ab b6 3f 48 97 b1 05 2b 50 c6 bf
       0.08855173893506241 -0.17432153490079316
0001e0 07 7b cf 7b cd 32 a0 bf 72 9c dc a4 95 55 ad bf
       -0.031637593616087804 -0.057293583273627116
0001f0 de fa d7 20 15 b2 c4 3f 64 69 22 0a d7 24 bd 3f
       0.161684647595357 0.11384338376448039
000200 59 67 6c 6d 69 cb b7 3f 5b 64 6d 95 93 f4 b2 bf
       0.09294756814452167 -0.07404444120528934
000210 70 58 a3 08 ff 43 b4 bf 9c 69 04 27 ee 95 b9 bf
       -0.0791625400628122 -0.09994400456017732
000220 85 62 58 e0 1a 17 c7 3f f6 e7 db 04 8d 9a c3 bf
       0.18039260820730277 -0.15315401780372867
000230 38 78 55 4d d8 d0 b0 3f af 91 70 29 97 b2 bc bf
       0.0656867207339652 -0.11210007440292345
000240 6c 98 23 de 76 39 c4 3f fd 65 f8 3d e1 d3 a6 bf
       0.15800367209084543 -0.044585264982924123
000250 14 51 a5 c9 b7 8e c5 bf d8 61 99 8e 11 ab bd bf
       -0.1684179052923659 -0.11589154941010038
000260 21 69 b2 0c 9f 3a c3 bf 7e c0 46 c0 bb 75 93 3f
       -0.15022647972075112 0.019003804789179395
000270 ad 21 ae 93 b1 c1 9d 3f db f5 c0 63 96 fe b6 3f
       0.02905919517391602 0.08982219634432147
000280 4d 82 97 41 6c 31 b5 3f 9c 59 4a e3 10 6c af bf
       0.0827853832374867 -0.06137135290662174
000290 0a cd ae dc a4 6f ba 3f 03 06 75 30 09 e6 b0 3f
       0.10326605212940279 0.06601006920848111
0002a0 1c f8 ca 23 08 20 b3 bf a1 78 d2 88 ca 7a cb bf
       -0.07470751642083012 -0.21468478852051923
0002b0 8b bc 92 34 d1 2e b2 3f ab 13 16 27 5a 63 a4 bf
       0.07102687390828259 -0.03982049681784557
0002c0 c0 48 bc d0 6d b4 c2 3f 98 51 c4 a6 2d 7b 6e 3f
       0.14613125507509572 0.0037208453778793775
0002d0 ec e1 7d 26 63 8d b2 3f 70 02 e8 78 56 0d ab 3f
       0.0724698990796992 0.052836134203975926
0002e0 3a 8e 1c ea ed ca a5 bf 9e ed 03 fb d6 c8 80 3f
       -0.04256385309988926 0.00819557145631827
0002f0 b9 72 98 ff fd 55 bd 3f 97 a4 c4 83 5b 6a c7 bf
       0.11459338655590558 -0.18293327268591916
000300 4d 65 45 36 ac fa be 3f 22 ae 4e d2 00 0d c7 bf
       0.12101246190049615 -0.1800843264476138
000310 57 ac 32 d3 b3 c1 c8 3f 70 a6 69 31 37 32 c7 3f
       0.19341132938766023 0.18121995842675487
000320 ab b4 a3 41 33 02 c3 bf e5 91 35 68 33 c4 b0 3f
       -0.14850464539577976 0.06549378675624203
000330 74 bd eb 9f 19 84 c9 3f fc 29 b6 c9 4f fb 96 3f
       0.1993438750136921 0.02244305294656533
000340 de 48 90 02 fa c6 b3 bf b2 16 a6 ad 18 54 c5 3f
       -0.07725489199245625 0.16662891844696542
000350 9b fe d3 a0 b2 05 b8 3f 82 00 eb 66 af e7 b5 3f
       0.09383694101779343 0.0855664850487319
000360 1e 60 e6 97 c6 4f c8 bf d0 f6 8a dc d8 3b aa 3f
       -0.18993456284511095 0.051237847253543856
000370 37 ac 08 c8 0e 14 a6 bf 8f 6a 8e 71 47 b6 b8 3f
       -0.04312177841014669 0.0965313579785436
000380 2c d3 ad cf 4f d4 b3 3f ba 45 70 88 37 e8 c0 bf
       0.07745837040222331 -0.13208669817008262
000390 b1 ee d9 a2 bd 98 ca 3f 3f 9a b3 88 44 3b 72 bf
       0.20778627826427035 -0.004451053343677957
0003a0 fc a9 9d cd ba 08 a7 bf 78 a3 2c c7 d3 77 9f 3f
       -0.04498847732505237 0.03073054221309543
0003b0 6c a0 a1 be fb a5 c3 3f 0d f7 88 17 e5 b0 be 3f
       0.153502910691944 0.11988670181832735
0003c0 5c 88 1b b7 1f 28 ca bf f2 4a 17 53 da 75 cb 3f
       -0.20434948387907326 0.2145340829580032
0003d0 a6 bc f4 78 ed 8a bc 3f f9 eb b6 6e d7 a7 b4 3f
       0.11149486735370093 0.08068605854980139
0003e0 28 d5 72 2a 59 50 bf 3f 8a 7f d1 65 31 f6 b2 3f
       0.12231976782171172 0.0740691064434015
0003f0 d5 0c 23 21 de 8c c0 3f 5a 73 7e 97 53 ff b7 bf
       0.12929894083035856 -0.09373972366888719
000400 b6 f6 43 a2 c0 04 c8 bf 9b 6b 95 f5 90 9f ae bf
       -0.18764503405684757 -0.05981114385459493
000410 d3 ae 5c 11 c2 97 a5 3f e8 bf 33 6b 1d 51 a9 bf
       0.04217344724596974 -0.04944698270435294
000420 0f 6a e0 a5 8c bb c6 bf ac 8e 4a 83 47 e7 c8 bf
       -0.17759855365223173 -0.1945580855436807
000430 95 13 96 9f 96 31 c3 3f 19 05 1b b7 b4 74 c7 bf
       0.14995081703468985 -0.18324908199978365
000440 ed 92 75 df b0 b8 b3 3f 89 06 c3 9b d7 53 d2 bf
       0.07703690963314687 -0.28636732302775464
000450 0d 31 00 70 62 a9 a8 bf 46 c1 a6 06 27 6b c0 3f
       -0.04816730134197842 0.12827003311896074
000460 2a 57 e8 0c 83 10 ca bf a2 ef 12 a9 28 b2 a1 bf
       -0.20362890367749148 -0.03456236900225852
000470 5e 0d de 1d a1 20 ba 3f bb c6 9a c2 72 0c b4 3f
       0.10206038455185282 0.07831494570816748
000480 a4 15 51 13 4e ad a5 3f 25 85 0f 2e 27 c5 c1 3f
       0.04233783708381658 0.1388291335015676
000490 65 84 b5 c6 ba 49 b7 3f 52 27 46 dc 80 3f c3 3f
       0.09096877433104707 0.15037546878402935
0004a0 12 f9 a0 a9 8b 1f 80 bf ee 87 a3 71 99 d1 cc 3f
       -0.00787266837516801 0.22514646576661285
0004b0 dd a7 ef 0a 70 bf c1 bf aa 54 43 5b f2 19 a6 bf
       -0.13865471395484877 -0.043166707649711825
0004c0 d0 bf 9e f4 64 a7 c8 3f 2c 15 95 76 d1 b0 ca 3f
       0.19260847038594742 0.20852106371072787
0004d0 db 8c 7a 71 c2 17 bf 3f d2 17 a5 94 d4 56 a1 bf
       0.12145629187084543 -0.03386558832657695
0004e0 ec 6c f1 1f a0 2c ab 3f f4 99 7a a7 ba 95 b5 3f
       0.053074840449619604 0.08431593502846352
0004f0 a2 db 09 7e a3 f9 92 bf 3f 4f 9b 68 41 ea c0 3f
       -0.018530420844821933 0.13214891059635112
000500 94 bc 37 71 9a e8 ae 3f f9 ac 6f d0 10 ed b2 bf
       0.06036837226917516 -0.07392983521247122
000510 c3 ab 95 6a cd e4 bc bf 41 c0 1a 8a df 84 90 3f
       -0.11286624767460211 0.016131871036748405
000520 96 72 13 bf af cc a8 bf 39 db 4a 3e 4d 30 cc 3f
       -0.04843663413496306 0.2202240518724581
000530 a6 a0 8a 85 de 18 ba bf 52 5e 22 6a 4b b9 be bf
       -0.10194197426119675 -0.1200148710362268
000540 dd 38 a6 69 ae a5 a8 3f 71 fc 3c f3 01 4a 9d bf
       0.04813904800094957 -0.02860262915714568
000550 4d 81 29 12 50 6e c4 3f b1 3a ec 58 a7 75 a5 bf
       0.15961647879431454 -0.04191325149996795
000560 70 4d 75 23 df d6 73 3f 96 99 7f 5a 59 8b 7d 3f
       0.004843589434432402 0.0072129717227426195
000570 26 56 d7 7e 16 4b 95 3f 26 4e 14 3c db 6f bd 3f
       0.02079425000359527 0.11498804299144946
000580 73 7c 29 59 ea 41 bb bf e5 d2 40 3d b4 dd bf 3f
       -0.10647453953559864 0.12447668548049824
000590 8f 00 e3 e2 06 13 c0 bf b5 d2 59 99 8f 5d a0 3f
       -0.1255806548924778 0.031963813275898735
0005a0 65 6e f0 2e 32 b7 c5 3f 01 98 d7 0e 15 14 c3 3f
       0.1696531991191136 0.14905036186900136
0005b0 c5 4c 44 4b 78 df c7 bf 86 7e 69 f2 f1 43 b2 bf
       -0.1865072600854544 -0.07134926002754058
0005c0 e9 2f c1 77 60 2f bc 3f 7e 63 2a 57 74 4a a1 3f
       0.11009791301438522 0.033771167412118594
0005d0 87 79 3b ed 67 aa a1 3f 65 37 72 4b f0 9d 92 3f
       0.034503219326995675 0.018180613140934016
0005e0 e0 f9 85 d2 99 5f ca bf 50 48 55 a2 13 af c5 bf
       -0.20604250697574766 -0.16940541674063292
0005f0 49 68 b7 78 e3 ce a5 3f 92 cf 67 fe 37 5a bc 3f
       0.04259405945386214 0.11075162850448653
000600 bd 8b 96 6a 6b d0 a3 3f e9 38 a7 c1 12 6d b0 3f
       0.038699490319479925 0.06416432597982048
000610 b3 b4 a6 c9 1a e0 a7 bf 1c 79 72 c6 d9 6d 84 bf
       -0.046631657710670814 -0.009975148552538608
000620 80 0e 88 19 c7 6a bd bf ed f6 8f 8d 8f c6 c2 3f
       -0.11491054890944419 0.14668459331726727
000630 ba 7a 62 18 f3 c5 c8 bf c6 6f b1 b2 67 0a c4 3f
       -0.19354094210298972 0.1565675375485382
000640 34 60 f4 27 fc aa c8 bf 76 2f f9 6e 2c d4 9c bf
       -0.19271804762752398 -0.02815312793090593
000650 9a 39 9b 98 da 93 be bf 04 ca 89 78 9b b4 b5 bf
       -0.11944357133618269 -0.0847870988161859
000660 47 52 b2 ef 65 cf d0 bf a6 45 c9 2d cd 18 cc 3f
       -0.26265858085506405 0.2195068811002276
000670 67 d0 7d cf 6f a7 9a 3f 4a cb 0c db 5e e4 c5 3f
       0.02602934554984451 0.17103181548881202
000680 b1 b7 41 ea 81 db cf bf e3 74 c7 c8 92 29 7e 3f
       -0.2488863366920078 0.007363866211077072
000690 d1 46 0c 26 e0 78 bd bf 51 3f 97 8e 5c 8c bf 3f
       -0.11512566498665967 0.12323549729557938
0006a0 9b 10 ee 79 ad a5 ca 3f e6 bd 0f 9c 68 7a a2 bf
       0.20818108037577052 -0.03609015374228956
0006b0 29 73 54 c3 f1 d0 b8 bf 01 ae 0d 7a f8 be 82 3f
       -0.09693823832317307 0.00915331003644493
0006c0 10 1a 8d f0 fa 1d bd bf a7 82 cf 35 74 01 9c bf
       -0.11373871205169217 -0.027349296364152533
0006d0 31 d4 de 21 49 d1 c8 bf 86 1a 9b 26 05 8c b4 bf
       -0.19388689187840805 -0.08026153748060424
0006e0 8a 97 2e be 80 23 bd bf d6 b1 03 c6 58 31 d3 3f
       -0.11382298129191618 0.29988688790652185
0006f0 ec 50 d1 e6 79 e7 c2 3f f5 76 ff 80 8e a4 be 3f
       0.1476890923537505 0.11969843530047426
000700 47 14 35 aa 26 0e c8 bf c2 3a 01 d1 2a 34 75 bf
       -0.1879318553057223 -0.005176703693065833
000710 74 6e 80 3a a9 e2 c7 bf 02 da 1a 67 a4 6c c3 3f
       -0.1866046462681542 0.15175299677294168
000720 46 f8 68 2a b1 fd c9 bf 3a fc d7 52 04 44 b8 3f
       -0.20305456705858854 0.09478785536337933
000730 3d d8 69 7d 78 bf c0 3f 7f 7b 81 ea 76 3c c5 3f
       0.13084322093681236 0.16590773058393535
000740 b6 bb 87 0f df a9 c8 3f 04 a8 29 db d5 3f bc 3f
       0.19268406160651147 0.11034905052807181
000750 bc 3c e8 09 c7 82 9d bf 8a ee 21 8b ef 71 b5 bf
       -0.02881918905228241 -0.08376977106848407
000760 4d ea 92 77 ed 90 84 3f 05 c2 4a 26 f2 e9 b1 bf
       0.010042052470784624 -0.06997598109115451
000770 e8 32 4b aa 95 c2 b1 3f d6 b8 0b 6c 5d 47 a5 bf
       0.06937537581979891 -0.04156009620588612
000780 c5 d0 a4 82 86 06 b1 3f a5 ca c5 2d a4 43 c4 3f
       0.0665058201746574 0.15831424937240005
000790 1a fb a1 dc c2 6b bd bf aa 99 a0 e9 65 24 b4 bf
       -0.11492555510083627 -0.07868039087097736
0007a0 e4 ff 78 13 fc 63 c5 bf 4d 8a 45 a3 6c 4d c4 3f
       -0.1671137900430032 0.15861280414817927
0007b0 29 fb b5 79 28 6c b5 3f 38 83 2e c9 0e 70 bf 3f
       0.08368161174255974 0.12280361568128917
0007c0 a2 3b 6b ee 53 3b b2 3f f6 c4 57 c3 80 0f c7 3f
       0.07121777125142484 0.1801606134245401
0007d0 1d 20 b9 8d 5f df c2 bf 79 56 2b 94 8b c6 c2 bf
       -0.14744181079936505 -0.14668411955669905
0007e0 11 af 70 9f 00 d6 c9 3f 7e 66 89 09 0f 07 a9 3f
       0.20184333596386542 0.04888197890677491
0007f0 08 6c e0 c9 25 14 b6 bf ae f1 a9 47 5c 58 ab 3f
       -0.08624492815617668 0.05340851187517913

weight_hh_l0 f8 [128, 32]
000000 88 95 41 1f 7f 81 af 3f 44 5f c6 bb 6a b3 ac 3f
       0.06153485542817366 0.05605634252714123
000010 ed 1a 28 09 f0 ba 9f 3f 4a a0 5f 1a e5 b9 be bf
       0.030986548003080584 -0.12002403158078426
000020 3d 68 cc e0 da bb ac 3f 1a 51 3f b4 47 14 67 3f
       0.05612071985360998 0.0028172874899416002
000030 7a 9a 81 c8 64 42 c2 3f 61 a0 76 8c 4f 55 94 bf
       0.1426511744532098 -0.019856684635357506
000040 1e 37 f7 70 c8 91 b1 bf ee 09 9f 25 11 b9 9c 3f
       -0.06863072164489067 0.028049724503725608
000050 e5 66 c7 b8 66 82 ac 3f fd 5d b6 66 8b 56 ab 3f
       0.05568238263704276 0.05339465740979319
000060 9e db 7d 62 dc f4 b4 3f 06 7c f1 1f a4 ee c3 3f
       0.08186128048497074 0.15572024879199392
000070 54 ff 74 32 6b 80 b7 bf ef 48 71 83 ca 95 87 3f
       -0.09180326444493164 0.011516172539050433
000080 83 b6 eb 1a fc 9c 91 bf 82 d4 c9 a2 c1 46 bd 3f
       -0.01720041193305245 0.11436090683294434
000090 61 33 68 ea 5e 4d a5 bf e2 40 b8 d2 26 ff aa 3f
       -0.04160591708578099 0.052727902624725834
0000a0 2b 7e 8d 66 b4 4b c1 bf 87 22 1c ba 38 9f 83 bf
       -0.13512282378631943 -0.009581034831641645
0000b0 53 9a 5a 75 42 9a c7 bf 8d 47 38 a2 bd 85 a6 bf
       -0.18439512949153655 -0.04398911099646261
0000c0 4b 66 1c 68 95 6d af 3f 8e 84 04 bd f2 44 bf bf
       0.06138293167005012 -0.1221458159893862
0000d0 d0 c7 cc ff 72 6d c1 bf 68 19 f2 65 50 fe c3 3f
       -0.13615262499075564 0.15619854905908004
0000e0 70 11 8e e0 72 fc cd bf ec f4 00 59 c2 3b c4 bf
       -0.23426662411305754 -0.1580737051571427
0000f0 e7 f8 df 4d 0f f2 b1 bf 8b 49 58 00 ad 74 c5 bf
       -0.07009978915445779 -0.1676231624301859
000100 c0 05 4b 4f 14 9c c2 3f c1 40 d0 81 8e b6 cc 3f
       0.14538816329699777 0.22432118738698217
000110 5e fd db 40 40 75 c2 3f 95 9c ea df ca f7 c0 bf
       0.1442032162376376 -0.13256202634258743
000120 44 4f c3 1c a5 44 a1 3f 17 ea 53 ee 3b 18 b1 3f
       0.03372684455976452 0.06677603310155465
000130 37 c9 99 ab b1 c9 88 3f 7d 9f 8f 0c 38 79 af 3f
       0.01210345082219942 0.061471702130631
000140 56 61 cb 4f e1 2a be bf 7d 65 61 ef 7d 13 bb 3f
       -0.11784179876429354 0.1057661733078898
000150 9b 0b f2 6f 72 88 c6 3f fa d5 3e a0 92 f3 a2 bf
       0.17603903261268958 -0.03701456266518828
000160 84 55 82 fb c2 0d af bf e4 a9 f1 93 39 ed 98 3f
       -0.0606518680589643 0.024342441229615278
000170 c7 1b 03 1e 7f af b8 3f 25 eb b1 ae e3 b6 ab bf
       0.09642786486357045 -0.054129710269043486
000180 ce 30 ab b9 0c c7 c6 bf 36 3c fb 61 e8 61 81 3f
       -0.17794951501708173 0.008487525453714988
000190 74 b1 03 bc e5 67 ab 3f 42 3a e9 58 8e d7 c1 3f
       0.0535270492563055 0.13939074841842297
0001a0 e7 6c e8 25 4b 5c b6 3f 0d 4e 1b 01 9b 61 c2 3f
       0.08734578776823164 0.14360368303333396
0001b0 e4 36 1a d3 27 62 b9 bf 56 47 a5 9e d0 85 c6 bf
       -0.09915398506037892 -0.17595870729797508
0001c0 b1 64 3a 93 7f 74 b4 3f 66 61 26 d4 50 cc a9 3f
       0.07990262360034951 0.05038693036766766
0001d0 07 88 2c 1f bd 0d b0 bf f1 c7 78 38 de cd ab bf
       -0.06270963679392604 -0.05430502356865919
0001e0 a5 fa 9e 91 a7 8c be bf 78 f8 f4 cb 72 07 91 bf
       -0.11933371834946145 -0.0166299759850905
0001f0 15 7b 29 bf da 48 a7 bf 37 f7 03 2d c5 ec b5 3f
       -0.045477710566720266 0.08564407681475648
000200 bb 91 fd 18 27 6f b8 3f 7b fc 66 da e1 54 c8 3f
       0.09544605598563909 0.19009040035414046
000210 fa 9b 1f d9 8a 39 aa 3f 2c 93 de 50 5f 0b c5 bf
       0.051220263485269826 -0.16440955589964668
000220 9c 3f e0 78 75 08 c0 3f be c9 98 e7 60 f0 c6 3f
       0.12525814439913752 0.1792107706874741
000230 45 a4 0d ad f7 d9 d0 3f 5b 4b c9 be 75 e7 b7 3f
       0.26330367946372163 0.09337554843777467
000240 59 01 f2 67 54 7e d0 bf d0 40 25 8b 49 4a 9a bf
       -0.25771055365477974 -0.02567400848175866
000250 d4 25 6e 03 70 23 cb 3f a1 5c 7c cf 85 df bf 3f
       0.21201896827214617 0.12450443568774229
000260 07 9b 4f 7f 75 37 a8 bf a1 aa a4 db 63 04 c2 bf
       -0.04729811839188441 -0.1407589743115141
000270 5b 19 ef 68 c5 9c 71 3f d1 5e 4d 2c 3a b3 91 3f
       0.004299899227538563 0.017285260156625185
000280 4f 98 e2 62 53 1a a5 bf 72 cd 95 e5 fb df cd 3f
       -0.04121647436231567 0.23339794836247624
000290 fe 68 cf b5 27 ee a1 bf 6b 05 38 f9 c2 e2 bb 3f
       -0.035020104354503076 0.10892885765499265
0002a0 6d 79 7e 6d e7 4f 5d bf 46 7c 31 d3 7d df b5 3f
       -0.0017890701328507578 0.08544145971380698
0002b0 6d 27 97 d6 3b 22 c2 bf 0e 37 24 65 79 7e ad bf
       -0.14166973093079652 -0.05760554656636262
0002c0 26 13 99 0e 21 8a b6 bf 66 99 92 ba 93 1b bd 3f
       -0.08804518324275232 0.11370204262730041
0002d0 59 0e be 8f ce 04 a0 3f 7c 0d 6a bf 90 c7 c4 bf
       0.03128667359035537 -0.16234025331878488
0002e0 3d 5c d4 dd 98 58 c5 3f 41 f9 0f 7e ea db bb 3f
       0.16676626998443736 0.10882440164275399
0002f0 64 dc 3a 69 10 07 35 3f e8 46 f0 35 62 8f d3 3f
       0.0003208556238222858 0.30562644259872096
000300 cd 03 8f 2b 79 61 c0 bf e2 11 3f a3 5d 56 af 3f
       -0.1279746496857385 0.06120579355004786
000310 36 1b 21 40 54 bc c4 3f bf c2 2e 63 64 fb b9 bf
       0.16199734813036465 -0.1014921896119274
000320 e1 01 2b b0 29 78 c6 bf 69 9a 57 4c 13 2d b3 3f
       -0.17554207899048804 0.07490654577086676
000330 58 94 e6 c5 58 35 a9 bf 31 4a 49 db 0d bb a3 3f
       -0.04923512855320017 0.03853648473581862
000340 6a e4 3a 59 9d ea 89 3f 6a f4 c9 50 d1 b7 64 3f
       0.012654523168168025 0.0025290573306038693
000350 fb 08 7a 7d 50 49 c5 3f 25 05 23 2c 4c 5c b4 bf
       0.1662998783759305 -0.07953334882315184
000360 93 77 ce 22 90 af a5 bf 37 79 50 9c 06 77 b6 bf
       -0.04235506462940388 -0.08775368992107678
000370 bc 2b b1 63 ca 39 c0 3f e3 86 d8 9e 6d cd 58 bf
       0.12676362865235358 -0.0015138216507541373
000380 31 a1 98 01 4e 3a be bf 4c b1 d3 fa f3 da b7 3f
       -0.11807715929956399 0.0931847083444996
000390 65 3a fc 99 87 6b c9 bf 9d 85 ca 56 41 cb bf 3f
       -0.19859404581844156 0.12419517868922587
0003a0 47 6f 6b 26 d8 6a c1 3f 14 c2 ef 8b 70 42 af bf
       0.13607313037834443 -0.061053769189929025
0003b0 c8 ac 25 f5 89 e9 bb bf eb 71 a7 8a e6 47 a4 bf
       -0.10903227076566957 -0.0396110576873275
0003c0 75 30 74 cc d2 4b c5 bf 6a a5 0c ea 73 09 c0 bf
       -0.16637644751643035 -0.12528847625916778
0003d0 df ed 48 a5 a3 d9 ae 3f e3 0c 33 a9 4a ba bc bf
       0.0602542056335229 -0.11221758490414717
0003e0 f4 63 63 75 a9 a9 b8 bf 44 6e c6 a1 53 39 c9 bf
       -0.09633883586810993 -0.19706197165656836
0003f0 8f f4 19 c2 6d ba a4 3f 04 ff f2 bd 55 0f ca 3f
       0.0404848384323283 0.20359298491347755
000400 a0 e3 30 de 50 ef c8 3f 73 e1 4e e7 a9 2f a4 3f
       0.1948033413807737 0.039426145063262384
000410 07 83 be e0 3e 2f c5 3f d0 5f 42 bf 54 fa b9 3f
       0.1655043218024945 0.10147599858680612
000420 db 74 34 69 3d 44 97 3f f3 e3 3f 82 8e e3 74 bf
       0.02272125200862694 -0.00509982745642733
000430 a5 ed 84 ad a5 1b c7 bf 47 93 35 b7 4b c9 a6 3f
       -0.18053122494334875 0.04450451480332745
000440 67 aa b2 30 3c f1 b7 bf 2c 0a 0f 4a f6 f4 73 bf
       -0.09352470578111537 -0.004872285907313183
000450 69 8d 8b b8 46 a6 b0 3f e5 56 df 20 9d 2d c3 3f
       0.06503717427726986 0.14982952218149773
000460 8f 1e 34 ec ba c7 a6 bf 00 b9 40 87 5e ba bc 3f
       -0.04449257024139996 0.11221876909323569
000470 4d 16 0b 60 11 ef c6 3f e3 da e0 96 23 d1 aa bf
       0.17917077245344828 -0.05237685410286532
000480 6a 02 52 9a e4 81 ba 3f b5 c0 c7 38 4b 28 c1 3f
       0.10354450957857755 0.13404217026209655
000490 f8 ba e5 c8 5e 78 b6 3f 40 73 09 80 54 36 b9 bf
       0.08777420429917615 -0.09848526121045342
0004a0 73 03 cf 38 8b b0 9b bf 4a e7 1a 0d 34 ce b5 3f
       -0.02704064878685437 0.08517766303967025
0004b0 62 13 e3 b4 5e 48 b7 bf bd dd d4 91 6a 41 a4 3f
       -0.0909480277651489 0.039561586667726335
0004c0 07 36 f7 6a 7a 06 c1 bf fc 1e 0e a1 d3 b3 ce bf
       -0.13301019881184592 -0.23986287464162348
0004d0 51 7f d8 a7 3d 49 9e 3f 76 04 4f c9 e7 ec bb bf
       0.029576266641128616 -0.10908363976251842
0004e0 00 f1 d3 c8 54 30 c2 bf b1 dc 64 a4 4d 34 ac 3f
       -0.1420999508480989 0.055086542432428394
0004f0 c7 ef 69 15 5a 5d b1 bf ed 52 0b f6 ed ab b2 3f
       -0.0678306867866346 0.07293593651713666
000500 e4 1e 77 93 15 64 ab 3f ef 30 80 b9 10 c7 c5 bf
       0.05349795746911726 -0.1701374917760243
000510 12 46 13 2b 68 20 b6 3f 00 de 70 7e fd d7 c7 bf
       0.08643199016230366 -0.18627899812575777
000520 cf 57 3e 9f 6b d6 a2 bf 50 da cd 95 ad 41 b1 bf
       -0.03679214781656947 -0.06740841777159656
000530 ff 7d 6d 49 20 b8 ad 3f c4 26 1f fe 3e fb c1 3f
       0.058045395816176175 0.14047992141995824
000540 fa a4 ed 4f 2a 2a c6 3f 43 7f 79 27 3e 4d a7 bf
       0.17316178229092555 -0.04551119071834233
000550 1e dc e8 25 ed 42 b7 3f 04 ce db b0 91 d9 ca bf
       0.09086496520545537 -0.20976468215631894
000560 a9 e0 42 a4 ac 59 ce 3f c9 29 01 18 7a 95 c1 bf
       0.23711164494102846 -0.13737417385193698
000570 a9 12 90 52 1f 8e b3 3f 49 96 bd 99 39 74 c4 3f
       0.07638736501400935 0.1597969055830382
000580 a4 47 4b b3 2f 0c b0 bf 90 0b ea be e1 bb 9c 3f
       -0.06268594863220628 0.028060462262611774
000590 99 75 2d 84 85 da b7 3f 92 9a 10 a3 b6 a4 81 bf
       0.09317812420837014 -0.008614947177261887
0005a0 e6 40 21 91 14 e8 cb bf 18 4f 12 7f 10 70 b0 bf
       -0.21802002989216546 -0.06420996763546005
0005b0 0d 98 15 7f c6 a0 c2 bf a6 51 cb d9 ac fe b1 bf
       -0.1455314751175937 -0.07029228512994354
0005c0 ec 45 ae 40 06 82 97 3f 3c 84 2a 66 e5 30 a8 bf
       0.022956941316413834 -0.04724804756302389
0005d0 c8 6f 2e a1 78 84 b2 3f 15 db 87 a2 a8 6f b2 bf
       0.07233385024159056 -0.07201627700838416
0005e0 15 b4 ed 6a 65 91 a8 bf 4a 5f 4e 8e 5f ab bf bf
       -0.04798428468971153 -0.12370869850417168
0005f0 fe cf 3f 00 f3 26 ae bf 7a fc 37 30 e6 45 b3 bf
       -0.05889090898554626 -0.07528532674040092
000600 45 93 bc de 73 56 b4 bf 79 ea ff a9 64 90 a1 3f
       -0.07944416225343527 0.03430475783530524
000610 26 3a b9 b1 c9 85 cb bf f8 b0 10 d9 56 58 a1 3f
       -0.21502038171679877 0.033877099988190496
000620 61 4a 1c 9a 13 46 a5 3f 7e 3a f5 37 6d 53 b8 bf
       0.04155026680213748 -0.09502298942718743
000630 8d 54 f1 82 f5 8f a0 bf 49 30 a5 cb 76 b2 9e bf
       -0.03234832023068988 -0.029977661304016832
000640 62 34 b4 b3 4e c0 c6 3f c5 22 92 22 98 fb c0 bf
       0.17774375700574568 -0.13267804801969
000650 40 06 d5 db 8e 70 b7 3f 48 36 f1 fa d9 c3 a4 bf
       0.09156124941821364 -0.04055672825107287
000660 58 ce 7f 5e 18 94 aa 3f 16 6a 76 d8 d0 e2 b2 bf
       0.05191112664752201 -0.07377343449335458
000670 5f e6 00 2c d8 d1 a9 bf 48 1e 63 1d 1e db d2 bf
       -0.050429110881350374 -0.29462387914506794
000680 b2 33 77 25 02 1c b2 3f d7 d6 ad 2d b7 62 c2 3f
       0.0707398740261869 0.14363755922720742
000690 73 84 50 bc 64 8b c1 bf 4b 1a 41 c9 13 63 b8 bf
       -0.13706645197911235 -0.09526179946360817
0006a0 a0 e7 f1 61 f2 18 c9 3f 50 88 8d 63 0b 34 d2 3f
       0.1960738161322384 0.28442654344519713
0006b0 df 94 29 95 3a d0 ab bf 64 00 46 c6 86 c6 a6 3f
       -0.05432303496199053 0.04448338671045418
0006c0 3d 07 8f b7 a7 21 ba 3f 2f d8 e6 1c 87 6d cf 3f
       0.10207603675283124 0.24553002272813404
0006d0 e9 1f 01 e4 a1 43 a1 3f 8c 0a d3 89 b6 40 b1 3f
       0.03371911915070298 0.06739369263508815
0006e0 e1 ff 07 fc a3 ea c0 3f 05 90 38 cb 25 ed b2 3f
       0.13216066175664223 0.07393108569573321
0006f0 a7 f6 06 b5 b7 42 c0 3f 85 a7 89 18 ef 6f c0 bf
       0.1270360597535973 -0.12841595361834038
000700 f3 c2 2b c7 e9 d6 a9 bf 48 dd c2 c8 aa ef a3 bf
       -0.05046778255735331 -0.038937890059453084
000710 3c a2 7e 39 21 04 92 bf 66 de a2 4e a9 c4 c0 3f
       -0.017593878874011745 0.131001628300271
000720 2a 1b ce 83 a2 2f ab 3f eb a8 d7 b8 dd 7a 88 bf
       0.05309779986332892 -0.011953098491137534
000730 56 34 da 46 33 0c bd 3f 6f 9e ca 24 be 30 c6 3f
       0.11346741180223438 0.1733625106473826
000740 b8 be 3a 17 4f 12 73 3f dc ff 52 f9 4b 1c bd 3f
       0.004656132648662208 0.11371302449242598
000750 f0 1a e9 e1 91 41 ba bf 87 49 19 24 aa f4 be 3f
       -0.10256301656145772 0.12092078572576358
000760 5b 76 1d 86 01 6a ca bf 3d db 31 cf 48 57 92 bf
       -0.2063600449427437 -0.017911088606037174
000770 64 86 b4 55 c9 89 af 3f 00 c6 2b 45 f1 8f a9 bf
       0.06159810229497678 -0.049926318830227245
000780 22 64 45 e8 46 75 94 bf 9c 76 a4 9c 63 6b 91 3f
       -0.019978626181316746 0.017011219440169797
000790 e2 c7 65 3e 13 39 65 3f 37 7b 58 db c2 d4 bb bf
       0.0025906921247775697 -0.10871522765272067
0007a0 5f 83 ae 73 37 fb ab bf 71 56 65 2f 13 0b 93 3f
       -0.054651005622196484 0.018596935050786138
0007b0 2a 55 d8 e2 47 a4 c1 3f 6d 36 2a 4b 4a d2 b9 bf
       0.13782595230501588 -0.10086502394752879
0007c0 52 7d 85 40 c8 7a b9 bf 8b d9 37 ba db 7d c1 bf
       -0.0995297582171493 -0.1366533908146262
0007d0 a9 e7 21 b0 70 db b1 bf e7 87 7e bb fa fd c7 bf
       -0.06975464153393197 -0.18743833689683173
0007e0 e6 3c 50 db 29 c4 b7 bf 52 71 90 15 69 f5 a1 bf
       -0.09283696750957268 -0.03507545841441363
0007f0 f0 e5 13 c8 37 ef bb 3f 8d c9 f8 11 22 3f bc bf
       0.10911892542562618 -0.11033833445325154

bias_ih_l0 f8 [128]
000000 99 68 74 1c 30 84 b3 bf 39 a6 34 73 fb ad b3 3f
       -0.07623577780433023 0.07687350809705941
000010 88 cf 1d 08 08 c6 9b 3f e8 c7 51 29 aa 3a c2 bf
       0.02712261724032275 -0.14241530435134497
000020 d7 4a 27 7c 1d 59 ba bf c5 ac 9a e7 b7 6a bc bf
       -0.10292228966799698 -0.11100339321517357
000030 9e fc 6a 9e 8c 6b a2 bf 8f d9 98 cb d1 f3 aa 3f
       -0.03597678598225083 0.05264144525829117
000040 3e 4a 7e 80 61 61 af 3f 75 5e 40 e7 14 fc ca bf
       0.0612898320533941 -0.21081792155813486
000050 f0 b0 12 6b 33 98 b3 bf d6 b3 aa 9f c3 9e b3 bf
       -0.07654115070426193 -0.07664129875293155
000060 d6 22 c4 fe 43 d0 a4 3f 4f d0 e8 ed f4 22 9e 3f
       0.04065144047678408 0.029430224438513893
000070 fa 5c 23 13 60 9c ba bf df 8e 92 c2 b3 e0 94 3f
       -0.1039485975955933 0.020388420820963368
000080 7a 6a 76 66 1e e1 c3 bf a7 e1 00 f5 f2 a3 b2 3f
       -0.15530757906966014 0.07281416398553252
000090 f0 80 fe 71 71 18 b1 bf a2 b7 3d 97 9e a3 5e bf
       -0.06677922280369208 -0.0018700646150721996
0000a0 c0 47 76 81 31 68 be bf b2 f4 69 89 94 7e c3 bf
       -0.11877736483282231 -0.15230042180693243
0000b0 fb ba 8f 9c b7 ea a0 bf 97 b5 14 2c d6 ec 93 bf
       -0.03304075037146067 -0.01945814746902882
0000c0 c7 14 7c 2a b1 d4 aa bf fd 78 30 6d 37 69 c1 3f
       -0.05240396159755672 0.13602345305930177
0000d0 76 d9 10 ae ff 7a be 3f b5 ac 59 61 22 97 c6 3f
       0.11906431197789921 0.1764872527449818
0000e0 b3 35 cf ca dd db c7 bf 7f 28 5b 13 84 8d c0 bf
       -0.18639728930285812 -0.12931872315522594
0000f0 9a ec 12 af 2a db c6 3f eb a2 30 a9 60 b2 aa 3f
       0.17856343792468438 0.05214216294581838
000100 72 ff 5c 29 60 7e a3 bf 3e 6c 4c c8 2f 3b b6 bf
       -0.03807354454920543 -0.08684061660862682
000110 11 ce 21 ec 6f b3 a0 3f e8 c3 a4 c5 fa 4c c2 3f
       0.032618997168267445 0.14297423029486755
000120 47 e4 66 3e 59 a2 bf 3f 2b 81 9d 3d c5 11 c0 bf
       0.12357099317058938 -0.12554231175000416
000130 8b 78 06 0c 52 67 82 bf 0a a8 1d e9 cf 19 ab 3f
       -0.008986130706770254 0.05293130608227166
000140 fd a1 02 90 0c 99 ad bf c1 34 bb ef 38 08 be bf
       -0.05780829675615349 -0.11731296398939418
000150 fd be 47 2d 89 c4 b3 bf dd 0d c1 78 ed 28 9c bf
       -0.07721764903521584 -0.027499876494642684
000160 64 bd a9 40 7e 76 b2 3f 69 f5 d8 29 7d 9a c5 3f
       0.07212056235015535 0.16877712767920208
000170 b8 ec 43 70 7f 71 ab 3f 79 db bb 3e 71 08 a6 bf
       0.0536002945463791 -0.04303316012185738
000180 53 5d a6 51 94 e8 c8 bf 18 43 e0 68 08 96 b6 3f
       -0.19459775912103314 0.08822681961488532
000190 e8 a6 12 ab 23 5b 9b 3f 25 f4 00 5a a8 fa a2 3f
       0.026714856449564645 0.037068615900786285
0001a0 a1 87 01 df 90 a8 b7 3f 1d 9a 1a 01 8c 34 ad 3f
       0.09241586155397254 0.05704152596927179
0001b0 79 77 99 61 07 dc be 3f 1b cc 86 c1 08 c0 aa 3f
       0.120544873550413 0.05224635469803492
0001c0 49 bc 9e e8 49 6b d0 bf 8e 21 f2 d5 d0 22 86 3f
       -0.25654838291933807 0.010808593300922788
0001d0 1d 77 ec 6a 43 0a c0 bf b4 35 9a c8 3c eb c2 3f
       -0.1253132125938742 0.14780387682951146
0001e0 dc 71 1d e3 5f 69 c1 bf 49 2b a9 39 c1 4c c8 3f
       -0.13602827634430426 0.18984237018079345
0001f0 e3 8f d8 b6 bb 79 87 3f 8f d0 79 2a 3b 24 c0 3f
       0.011462656514659336 0.12610568593993718
000200 eb d9 87 e9 14 4d b4 bf 57 0a 3a d2 f4 22 b7 bf
       -0.07930117322380396 -0.09037714130867279
000210 f2 ff 0d 58 8c 52 ca 3f 10 89 2e a0 2f f4 a5 bf
       0.20564417171044586 -0.042878616622390564
000220 30 ee f1 09 47 60 bf bf 95 db 28 47 90 ba c0 3f
       -0.12256282799528928 0.1306934688052165
000230 58 02 ae d4 26 cd c0 bf 04 f9 4e 87 5f 2a c8 3f
       -0.13126073250534165 0.18879312617168165
000240 2f bf d5 b7 69 cc a4 3f 9e cf 84 0b 5d 09 a3 bf
       0.0406220471294304 -0.0371808125077273
000250 53 09 0c 32 51 2c bb 3f 0c a1 08 10 ab 9e c9 bf
       0.10614497634745605 -0.20015466959854
000260 38 9a ab 54 d4 9e b2 3f 36 33 fd 09 3a 5d a5 3f
       0.07273604457041294 0.04172688838898468
000270 7b a1 72 08 b7 d6 87 3f ee ae a0 0d 35 87 b5 3f
       0.011640005059533767 0.08409434874254959
000280 4f 8e b3 4e 97 bd 94 bf 2d 19 90 df cb b9 be bf
       -0.02025448243956723 -0.12002252777174212
000290 ff 3b 07 01 c6 72 b0 3f 68 14 35 09 66 c8 a3 3f
       0.06425130391220078 0.0386382948150093
0002a0 ad 49 0d 8d 92 61 94 3f 6b f0 6a cd a2 04 c3 3f
       0.01990345941460141 0.14857897787249227
0002b0 c0 02 d5 25 ab fe a8 bf 7b c8 dc f2 0a 4d a0 bf
       -0.048817966812298774 -0.03183778967503855
0002c0 21 33 3e 59 25 c2 b5 3f ec e8 83 ff fa 0c ba 3f
       0.08499368122847929 0.10176056612172929
0002d0 b9 28 18 b8 67 cb c3 bf b0 2f 81 d4 59 74 c8 3f
       -0.1546449326418207 0.1910507476444514
0002e0 6e 5b e9 b8 30 a4 b0 3f d4 18 0d 80 0f 3c 9e 3f
       0.06500534548227474 0.029525987806913914
0002f0 c2 53 4d 29 3d 59 a3 3f 32 3c c2 0c 34 e7 b6 bf
       0.037790213863139424 -0.08946538268558937
000300 9f 42 66 79 b7 a8 8a 3f f6 67 23 ac f4 e4 b7 3f
       0.013017114059750865 0.09333733751864756
000310 7b 3c 6e d6 af b8 93 3f 56 90 20 4c b4 a5 bf 3f
       0.01925921198158818 0.1236221967561176
000320 0b 7c 49 cc 01 37 bf 3f 10 4b da 95 d4 f1 b2 3f
       0.12193309056736738 0.07400253923905731
000330 e6 18 69 5c e4 06 c5 3f 39 4c 78 1b 72 f7 ad 3f
       0.1642728282187768 0.05852848611188972
000340 e3 b6 97 0c 3a da 90 3f ac f4 b3 6a 17 93 9d bf
       0.016457469004243285 -0.02888142193568359
000350 e1 51 3c 3a 7c 8f b7 bf b8 e5 a9 0c 5c 6f af 3f
       -0.09203316137092755 0.061396481080872645
000360 d1 dd 08 e8 15 62 a3 bf bb d7 02 f7 22 34 b5 3f
       -0.03785770852521931 0.08282679110092676
000370 84 c0 d6 16 eb ce 90 3f fd 13 12 5f 08 11 ba 3f
       0.0164143307389968 0.10182239838657377
000380 2a 3c f3 8e dd bd cb bf 62 ef 53 3f 82 cd b1 bf
       -0.21673173408496044 -0.06954206510630237
000390 b7 90 9c bc e6 95 8b 3f 86 81 ef 77 21 28 a4 3f
       0.013469507819145894 0.03936867322022679
0003a0 fc 7c 8f 90 2a 1f c6 3f d7 b6 55 19 d2 4a 95 bf
       0.17282611902826506 -0.020793230816187638
0003b0 7f a0 87 91 a4 88 c6 bf ac ac 89 ec 80 96 c2 bf
       -0.17604500871607695 -0.14521800565430476
0003c0 4a 39 3f b2 16 9b b1 bf 51 e9 a1 09 55 af 60 3f
       -0.06877271510822883 0.0020367298976086486
0003d0 d3 ae 3f 29 6a 79 bf bf c7 cc 9e a9 fa 41 c7 3f
       -0.12294639117288435 0.1817010238861256
0003e0 57 67 4a 92 5f d5 c5 bf 29 7a f7 e3 5e 55 c2 3f
       -0.17057413714501976 0.14323030596911338
0003f0 c6 b2 64 3b f8 56 c5 3f 7c 06 2a 64 a5 e1 b6 3f
       0.16671660327974375 0.08938058562673662

bias_hh_l0 f8 [128]
000000 bb b1 ea 1e 75 30 c4 3f 36 9d 53 b6 b7 3e ce bf
       0.15772880563362243 -0.23628899004618525
000010 4e 59 14 7c 16 9a c2 3f be 38 79 a9 27 7e a4 3f
       0.14532738741463408 0.04002498573082523
000020 5a 3e f0 be 2f 4f 91 3f d3 9b 3a e7 ae 09 cb bf
       0.01690363505264112 -0.2112330082938728
000030 e1 e5 b3 e7 e6 2b c7 3f c5 12 09 a3 61 67 9a 3f
       0.18102728189096154 0.02578499372090694
000040 e6 a0 3a 01 31 25 bc bf e7 27 8c 74 ac a9 99 3f
       -0.10994249610905946 0.025061316121572388
000050 ef 4a 75 ee 76 6b b7 3f d1 01 98 d5 64 5c a6 3f
       0.09148352929814128 0.04367365939470214
000060 5b f9 40 29 12 75 c8 bf c1 2d ae 69 9d 91 be 3f
       -0.1910727216181368 0.11940940694892445
000070 a1 42 57 6c 9f a2 c2 bf 70 70 f2 e8 82 ea c2 bf
       -0.1455878523834331 -0.1477817189633046
000080 a9 d7 03 b7 7d 90 a3 bf 3e cb 1a c1 c6 b1 b9 3f
       -0.03821175440854969 0.10036890234441118
000090 f9 7b 83 11 e6 11 d1 3f 70 1a 81 c7 f6 4c 7f bf
       0.2667174502402641 -0.007641757947630098
0000a0 29 cb b9 26 5c c5 a6 bf 30 41 d8 cc 76 c9 b9 bf
       -0.04447448704458729 -0.10073034764377975
0000b0 07 09 f2 ca f2 71 c0 bf 3e df 05 bb 3d 55 b6 3f
       -0.1284774294800359 0.08723817649831475
0000c0 b1 fe 55 62 e5 55 a6 bf 2a 94 a1 3f f5 3f b2 3f
       -0.04362408471479052 0.07128842166419305
0000d0 23 84 29 00 ab 3e ac bf ab df 75 16 78 35 96 bf
       -0.05516561867694516 -0.021688343401791304
0000e0 e4 c6 59 b7 41 aa 9b 3f 3c 6b 3f 12 48 25 bc 3f
       0.027016665283048705 0.10994387097836705
0000f0 49 92 f9 2c 54 21 b4 bf 7f ed 0a 02 bb ae ad 3f
       -0.07863355730075584 0.057973712920523994
000100 3c c5 3a 88 eb 67 9e bf a5 d6 82 32 c8 fd c7 bf
       -0.029693298520844666 -0.18743231264459329
000110 b4 fd e6 0c ca 9a a5 bf 0d d5 96 f6 a3 52 c6 bf
       -0.042196573328961234 -0.17439698734748568
000120 ce e2 35 cb 28 b0 94 3f a3 a8 9f ce 4a c7 b0 3f
       0.020203244593605167 0.06554095787547225
000130 c2 fa 14 58 91 2e 9a 3f bf 83 9a a0 a1 b8 b3 3f
       0.02556826686963621 0.07703600092874206
000140 18 b3 79 e1 05 54 c6 3f 2e 1e b2 ce 1c 12 b2 bf
       0.17443917760410765 -0.07058887525828858
000150 80 21 e5 69 f1 e7 a0 bf 3e 98 87 0f 49 9a 86 bf
       -0.03301958482421963 -0.01103646353380949
000160 1e 14 af a4 c6 d0 cf bf c1 af 8a 3b 94 73 c7 3f
       -0.24855883637624826 0.1832146921855138
000170 b2 bb 64 a8 d6 7d cf bf 9f 1a 06 f6 df f2 ae 3f
       -0.24602778646791773 0.0604467380353999
000180 e1 3f a8 65 1f 05 63 bf a6 a5 8d d8 bc 30 b4 3f
       -0.0023217786049443 0.07886867796846406
000190 60 c5 1c d2 f4 1d 9f 3f 61 a1 8e c2 92 a6 a8 bf
       0.030387711834184983 -0.04814585328068933
0001a0 64 c3 38 8a 50 42 b4 3f 32 a8 2c 64 72 66 ca bf
       0.07913688063196173 -0.20625142947511815
0001b0 94 17 cc 8f ad 60 bf 3f 66 77 be b5 f8 cd ac bf
       0.12256893883394887 -0.05625893801264574
0001c0 07 dd d9 78 f0 62 ab bf 21 cb 70 ba d1 3d c4 bf
       -0.053489222290346965 -0.15813657382531068
0001d0 06 82 15 7b 1c e5 c9 3f a2 2b 6a 04 5d 0f b2 bf
       0.2023044205661934 -0.07054692609578564
0001e0 b9 3e e0 47 b1 9a c2 3f 61 a7 4f b3 37 70 b2 3f
       0.14534584054535118 0.07202480437959259
0001f0 29 85 45 1e 38 19 a7 bf 76 f3 4c d4 8e a7 b5 bf
       -0.04511428231740872 -0.0845879810630786
000200 17 f2 f3 0f 11 70 84 bf 51 bd da c6 63 a5 ab bf
       -0.009979375171036016 -0.05399619867727757
000210 43 22 22 74 ae 22 9a 3f 1f f6 88 2c 57 e6 bc bf
       0.02552292426892878 -0.11288971745758446
000220 7d 76 dd 8c 50 cf b7 3f e1 1f 05 b8 57 48 c4 3f
       0.09300712050522893 0.15845772252418924
000230 c0 0c fe c0 71 ee c3 bf 01 53 b2 7d c6 96 ab bf
       -0.1557142441125503 -0.053884699672527965
000240 50 a4 b7 f6 cd 85 b8 3f 05 33 a2 be 5f 68 96 bf
       0.09579169534085108 -0.02188253022227384
000250 28 34 e6 50 e4 7e a0 3f c6 f2 e7 28 38 96 b1 3f
       0.03221810805835218 0.06869841574366395
000260 51 c6 4f 82 0f 40 b5 bf 7f 4b 03 67 d1 d1 bb 3f
       -0.08300873691020995 0.10867031826937355
000270 09 19 90 f6 2b d2 c7 3f 5f ee 4e cf 7a b0 9f bf
       0.18610143222048972 -0.03094665422734832
000280 73 8b dd 8f ec 4f ac bf e7 d3 6e ca 71 6d 9f bf
       -0.05529727226419014 -0.030690935116314846
000290 d0 e4 8c 7c 8f 88 a9 bf 6b 09 a7 ed 2f 2c be 3f
       -0.04986999888792243 0.11786174346983606
0002a0 13 40 f2 a9 7b c6 c2 3f 5d c4 8c 22 1d 0f c1 3f
       0.146682222348773 0.1332737368298095
0002b0 9c 46 63 d7 24 ec c4 bf bb 12 72 37 45 69 a3 3f
       -0.16345654026968226 0.03791252424074317
0002c0 de 15 a8 4b 7f 86 4b bf 27 2c 0e b0 5d c7 a0 3f
       -0.0008400079307768168 0.03277104162324234
0002d0 93 e1 b8 ba 8f 2d b5 bf 4e 30 ff 93 d6 a2 a1 bf
       -0.08272646244666353 -0.034445481840152156
0002e0 64 ef a9 a5 d4 66 bb bf bc 2c db 8f ff 93 c2 bf
       -0.10703782124067868 -0.14514154934145107
0002f0 2f 78 05 4f a3 6f b9 3f 3d ba c4 c0 ea db c3 3f
       0.09935970954163119 0.15514883434794227
000300 72 71 65 15 e2 5f 9a bf 8f b6 a4 8b cb b7 a3 3f
       -0.025756390148090565 0.03851162032729604
000310 4c 7f 07 0d 01 ac c1 bf 91 91 b8 1d 1f 3b c2 bf
       -0.1380616487140237 -0.14242924643725677
000320 7a 42 8c 01 06 d3 b7 bf da 49 02 30 83 b1 c1 3f
       -0.09306371248045223 0.13822975010096067
000330 3f a1 47 58 42 61 b0 bf 7a 66 f5 1b c1 93 bc bf
       -0.0639840569998613 -0.1116295521982468
000340 93 3c e4 e5 fc c7 b3 3f fe a5 03 bc 1d 39 be 3f
       0.07727032291971829 0.1180590232867402
000350 75 05 17 0a 87 46 ba 3f e1 15 72 c1 4b c3 a3 3f
       0.10263866421066388 0.03859936462781
000360 5f aa 98 ea c6 1d 72 3f 55 ec b4 80 37 b4 a3 bf
       0.00442292882648107 -0.03848432012679185
000370 15 dc ba e7 00 f1 7c bf 88 82 fc b2 81 a3 c9 3f
       -0.007065776382368068 0.200302326579749
000380 5c 2f 5f f7 2d 43 97 3f d3 26 10 28 af 8e be bf
       0.022717207167985407 -0.11936468818762629
000390 0e 38 e7 3f f1 b1 b5 3f 7b 55 99 04 c4 b9 c4 bf
       0.08474643526207634 -0.16191911911543486
0003a0 ed 3e 7e d3 05 d6 b1 bf 2f fd ad e1 2e a7 a4 3f
       -0.06967197812468458 0.04033800606611703
0003b0 1c 91 ef a7 5a 0a c2 3f d8 26 de 06 de 41 c0 3f
       0.14094098281851408 0.12701011023846465
0003c0 7f ef 1d bb 1d bf a3 3f 22 6c 24 f1 fc 65 b1 bf
       0.03856747540609628 -0.067962464211107
0003d0 44 e8 94 63 40 61 a9 bf 87 95 fe 2f 3d 60 c1 bf
       -0.04957009521099612 -0.13574948161582887
0003e0 67 d0 aa cb 3a ff be 3f a7 d2 0f 40 1d eb 7c bf
       0.12108199570030963 -0.007060159929996124
0003f0 c9 80 70 19 c6 19 ac 3f 33 7f 9d ed 08 bf b8 bf
       0.05488413868465753 -0.09666496087220082
